data/character_models/lambda_00/face_morpher.pt (torch, 491887 bytes, 18 tensors)

siren.sine_layers.0.linear.weight f4 [128, 41, 1, 1]
00000000: da2f cc3c d147 c0bd 3f8e 863b ec8c 253a
00000010: fb89 903a f39b 8839 0ce6 f53b f802 00bc
00000020: 7ee8 823a ddf7 823a f4e2 263b 167f 5bba
00000030: b6d0 d0bb 3847 bf3b 3e27 783c a8f2 603c
00000040: 5363 473c f714 e63b e046 833b f1c4 b9bb
00000050: c760 ac3b 1612 c53c 1857 8f3c 5b8b 83bb
00000060: 45ab 9e3b ae06 67ba 3f6d c5b9 096b a5ba
00000070: 5b47 d23a 0d1a 133a 2a2d 003a 132e 7f39
00000080: 4cc4 9f3a f2e6 5539 08f8 22bb 63a6 353b
00000090: 5a91 bf3a 6471 0abb a167 ee39 3968 b139
000000a0: 00b1 36bb 1e2e 20bb 2c2b 55bb 2643 27ba
000000b0: ff3b eb3b 66d0 a7b9 67ef b83a f246 18bb
000000c0: b7cf a63b 72f5 d43b 2125 4cbb 5c39 1b3b
000000d0: 510a 063a b0d6 1b3b 013f 2f38 ccc7 da3b
000000e0: b57a 20bb 9980 a03b e2f8 4cbb bd6e 123b
000000f0: 1ae2 f03a 1a87 483c b85e 55bc b2e4 67bb
00000100: 182a 153c 9eaa 283b 4c84 ceb9 317a a3bb
00000110: 1791 c83b 1990 9e3b aee3 6b3b 9103 463b
00000120: 5a41 6e3b 065c 953b 23c8 ad3a 8a1d c4ba
00000130: 6545 123b c4f2 f2ba f8f2 7a3b 60f0 883b
00000140: 30f2 c4ba e3c0 4a39 1ec0 74bd 4d0e 64bd
00000150: cbeb 28ba 4d8d 0ebb b53a fdb9 7d6f 95bb
00000160: 5eb9 b7bb d71b 3e3b 7f8c 11ba 5306 21bb
00000170: a94e e1bb 0a68 af3b 2b23 dab8 215b 9bbb
00000180: 8641 2c3a 1920 2cba 8102 b239 6a1e 423a
00000190: c089 0bbb 49d1 34b6 0cbf 6a3b 930e 42bb
000001a0: 2bad e5b7 df67 0bba 90be 2c3b 8734 2ebb
000001b0: 4823 1b3a 2e08 30ba b559 973b a946 ae3a
000001c0: b418 c73a a628 633b 2f93 903b f6f0 2c3b
000001d0: 7b71 9b3b b010 9cbb 5991 7a3b 9518 91bb
000001e0: bf5f bb3a c0f3 de38 3150 8b39 931d 503d
000001f0: 428d 76bd 4244 143b ee12 9dbb 1200 ef3b
00000200: b67f b5bb 8846 c83a 9acc 40bb 8aa9 cbba
00000210: 5fbb 8d3b 0066 87bb c55b 953b 697c 6dba
00000220: 7b25 cd3a 81ff 76bb c75d 80b9 5c1c 4dba
00000230: 82cf 8ebb b51c 8fbb 2168 2f3b 0304 5dbc
00000240: 1587 e83b c958 a23b 99f1 ccbb a546 c43a
00000250: b718 5dbb dce7 073b 06b8 1eba c03a a7bb
00000260: df28 023b 39ed a9bb 0475 60bb 0dbc f9bb
00000270: fbee 06bc 7db6 49ba 04d4 fc39 0159 ee3a
00000280: 5a40 77ba 1287 213a 75e2 2739 329e ba38
00000290: adbb c1bc 0590 24bd bd98 99bc 00b5 723b
000002a0: 05ef bbbb 4b0f 6dbb 2914 f93a df66 50bc
000002b0: 608c f0ba 599a 05bc 367e a4bc 6cb7 3b3c
000002c0: c045 5dbb 5d4f 8bbb 5421 3a3c 685d 39bb
000002d0: acb1 1f3c d910 1fbc 5fd9 5bbc 64c0 9f3b
000002e0: 1798 ab3b 4208 ecba 0c31 0e3c 1741 88ba
000002f0: 4b1f ca3b b56d 94bb 6e8e c2ba aa87 573b
00000300: 18ef 0d3b 211f a5b9 e720 743a a54e ad3a
00000310: 3f28 673b 7867 373b e6a6 e43b ecfd c1bb
00000320: b21d 543b e0b4 5bbb 06fc 37ba c1be 4a39
00000330: b87b cd3a dd8d 303d 98f8 3abd a046 f8bb
00000340: 3bf6 793c d1ce ee3b 0dd0 e0bb b555 173c
00000350: 2a63 1cbc e792 01bc d577 4c3c 7e7c 093c
00000360: cf86 debb 0e23 623b fa69 8bbb 6733 b33a
00000370: 0db6 c1bb c227 b9b9 02ee 89ba c501 e5bb
00000380: f978 9e3b df02 4d3c 1a9c 5bbc 401f 87bb
00000390: b776 a63b 9399 d33a a017 17bb b023 b6bb
000003a0: f30a 943b 89cc 20ba 0b75 393a 37d1 0fb9
000003b0: 2d84 67ba bea4 95b8 a0a9 54b8 4596 b43b
000003c0: 4343 92bb cb72 90ba 095a 923a 4050 f839
000003d0: 78d1 9b3a 5495 59ba 1360 683d 8bdf 77bd
000003e0: 9ae0 81b9 2cec c3ba 731f acbb 2636 853b
000003f0: 69e8 2b3c c5db 20bc 9581 cdbb c2a0 d339
0.024925161 -0.09388698 0.0041063125 0.00063152495 0.001102745 0.00026056133 0.0075042304 -0.007813208
0.0009987501 0.0009992082 0.0025464864 -0.00083731243 -0.0063725365 0.0058373474 0.015146075 0.013729729
0.012169677 0.007021542 0.0040062517 -0.005669229 0.00526056 0.024056476 0.017497584 -0.004014415
0.0048421943 -0.0008812946 -0.00037656163 -0.00126204 0.0016042994 0.0005611487 0.00048895425 0.00024335859
0.0012189238 0.00020399297 -0.0024867076 0.0027717582 0.0014615462 -0.0021124715 0.00045472107 0.00033837723
-0.0027876496 -0.002444155 -0.0032526953 -0.00063805503 0.007178783 -0.0003200799 0.0014109433 -0.0023235646
0.0050906795 0.006498986 -0.003115006 0.0023685312 0.00051132316 0.0023779087 4.178193e-05 0.0066766497
-0.0024487202 0.0048981425 -0.0031276275 0.0022343837 0.001837793 0.012239242 -0.013023071 -0.0035384116
0.009104274 0.0025736461 -0.0003938995 -0.0049889316 0.0061208117 0.004838955 0.0035993862 0.0030214528
0.003635487 0.004558089 0.0013258498 -0.0014962417 0.0022319194 -0.0018535485 0.0038291793 0.0041790456
-0.0015025791 0.00019336077 -0.05975353 -0.0556777 -0.00064438273 -0.0021751702 -0.0004829966 -0.0045604096
-0.0056068143 0.0029008293 -0.00055522466 -0.002457042 -0.006875832 0.0053529786 -0.000104016006 -0.004741088
0.0006571043 -0.0006566062 0.0003395267 0.0007405045 -0.0021291822 -2.694391e-06 0.003581944 -0.0029610738
-2.7379565e-05 -0.0005317907 0.0026358701 -0.0026581602 0.0005918038 -0.0006715086 0.004618848 0.0013296205
0.0015189857 0.003466168 0.004412077 0.002638874 0.0047437525 -0.0047627315 0.0038233607 -0.0044279792
0.0014295502 0.00010631187 0.00026571893 0.050809454 -0.060193308 0.0022623693 -0.0047935164 0.0072937096
-0.005538906 0.0015279809 -0.0029418827 -0.0015538197 0.004325315 -0.0041320324 0.004558059 -0.0009059371
0.0015651429 -0.0037688913 -0.00024483932 -0.0007824355 -0.004358233 -0.004367436 0.0026764947 -0.013489726
0.007096181 0.0049544317 -0.0062543866 0.0014974667 -0.0033736655 0.0020737564 -0.00060546433 -0.005103439
0.0019860787 -0.00518575 -0.0034249434 -0.0076212944 -0.008235688 -0.00076947344 0.0004822315 0.0018184484
-0.00094318914 0.00061617896 0.00016010723 8.898637e-05 -0.023649061 -0.04017641 -0.01874959 0.0037034154
-0.0057352805 -0.0036172445 0.00190032 -0.012719839 -0.0018352382 -0.008154475 -0.020079713 0.011457305
-0.0033763498 -0.004251404 0.011360485 -0.0028284434 0.00974695 -0.009708607 -0.0134185245 0.0048752297
0.0052366364 -0.0018007832 0.008678686 -0.0010395375 0.006168281 -0.0045296797 -0.0014843473 0.0032887259
0.0021657404 -0.00031494445 0.0009312764 0.001322229 0.0035271791 0.0027985256 0.0069779037 -0.0059201624
0.0032366333 -0.0033524558 -0.00070184504 0.00019335283 0.001567713 0.04310404 -0.045647234 -0.0075767785
0.01525646 0.007287838 -0.006860739 0.009236743 -0.009545127 -0.007908559 0.012479742 0.008391498
-0.006790973 0.0034505758 -0.0042545768 0.0013671935 -0.0059115947 -0.00035315572 -0.0010523202 -0.0069887363
0.0048361984 0.012512892 -0.013403917 -0.0041235983 0.00508007 0.0016143791 -0.0023054853 -0.0055584535
0.004517907 -0.0006133994 0.00070746307 -0.00013715481 -0.00088316464 -7.135559e-05 -5.0702714e-05 0.0055110776
-0.0044635846 -0.0011020539 0.0011165749 0.00047362037 0.0011887988 -0.00083001447 0.05673225 -0.06051592
-0.0002477214 -0.0014947704 -0.0052527725 0.004065293 0.010492423 -0.009818022 -0.006271551 0.0004036483

siren.sine_layers.0.linear.bias f4 [128]
00000000: a4b1 7bbc ccec e5bd 8569 7cbd f1a3 183d
00000010: abd4 cbbd 0396 dc3d 326f 763d bf6d 083e
00000020: a128 db3d 183c b8bd e74e 953d c91f a33d
00000030: 7ec4 033e d29a f439 5bee c93d 0f28 133d
00000040: 165a d7bd 0737 d43d 5f7f 48bb 080d ce3d
00000050: 204d ce3c 2c7d 0b3e a4f0 cbbd d141 bdbd
00000060: 63eb f03a ff5a f43d c74e 06be 20b5 de3d
00000070: fcaf 06be 14e7 d23d 36fe b1bd e6f8 ea3c
00000080: 0afb d2bd ce33 4a3b 509c d8bd 705b d63d
00000090: 0161 cbbd 6e5b 8739 11ee e2bd 92a0 4a3c
000000a0: e9fd 01be 5079 24bd ed8c acbd dd3b ae3c
000000b0: 686b 39be fdf6 d93d 6adc cebd f787 653c
000000c0: 0d7a 06be 1cea 743d c158 ad3d 65ce 733d
000000d0: 0dde e63d c638 f8bd 5596 d6bd c521 553a
000000e0: 8070 de3d 6f4d c13b 116d 90bd 0cf9 d53d
000000f0: b0e5 fb3d d44c 1abe c5fd d43d 25f3 d43d
00000100: ab42 923d 3379 dcbd 546d 033c 286d 16bc
00000110: 97b8 d83d 78d0 6cbd 59b5 c93b 91b5 62bd
00000120: 41ee 72bd 06cc 663d 1b86 003e 6468 d6bd
00000130: 31c2 dabc dba4 90bd e6a2 d6bd 691e e6ba
00000140: ffef 353d 246f f7bd a2c0 0b3e 8fe2 2fbc
00000150: fa56 eabd 6e80 e63d 044d 2b3d f879 c83d
00000160: 8671 023c 1e85 a8bd 65d0 f53d 9166 ebbd
00000170: 1c92 ed3a 2861 8fbc d518 d73d c764 b8ba
00000180: df2a 4f3a d828 0cbe 8d6a 133e f461 f9bd
00000190: 4212 1cbe 191e 003e deeb bf3d 38fc 2fbd
000001a0: cf8c 073d 107d 143e 1759 9f3b 45b2 99bb
000001b0: f89e 033d 64b5 20bc c9b2 d73d c819 023e
000001c0: e430 bbbd 1151 f3bd 189b 37bc cfa1 2d3d
000001d0: 69e2 3fbd e5d8 dbbd 5f4b d63d ac78 ef3d
000001e0: b983 0abe 91bb 03be 0382 c73d 4dc3 23bd
000001f0: 941c 603c 84bd 06be 6668 fbbd 12fe ecbd
-0.015362177 -0.11226806 -0.06162407 0.03726572 -0.099526726 0.107708 0.060164638 0.13323115
0.10701109 -0.08995837 0.0729044 0.07965047 0.12867925 0.00046654657 0.09859916 0.035926875
-0.105152294 0.10362058 -0.0030593497 0.10061079 0.02518326 0.13621968 -0.09958008 -0.09241069
0.0018380698 0.11931419 -0.13115989 0.108743906 -0.1315307 0.10297981 -0.08691065 0.028683137
-0.10301788 0.0030853632 -0.10576689 0.10466659 -0.099306114 0.00025817327 -0.11080564 0.0123673845
-0.12694515 -0.040154755 -0.08425317 0.02126878 -0.18107378 0.106428124 -0.101006344 0.014009467
-0.13132496 0.059793577 0.08464194 0.059523005 0.112728216 -0.12120204 -0.10477892 0.0008130337
0.108613014 0.0058991234 -0.07052053 0.104478925 0.12299669 -0.1506837 0.10399965 0.10397939
0.07141622 -0.107653044 0.008021671 -0.009181298 0.10582083 -0.057816 0.0061556515 -0.055348936
-0.059309248 0.056346916 0.12551157 -0.1046913 -0.026703926 -0.07062694 -0.10480289 -0.001755667
0.04441833 -0.12081745 0.13647702 -0.010735168 -0.11442371 0.11254965 0.041821495 0.09788889
0.007961636 -0.08228515 0.12002639 -0.11494172 0.0018125209 -0.017502382 0.10502783 -0.001406812
0.00079028116 -0.13687456 0.14396115 -0.12176886 -0.1524134 0.12511481 0.0937116 -0.042965144
0.03309327 0.14500833 0.0048629153 -0.004690441 0.032134026 -0.009808872 0.105321474 0.12705147
-0.091401845 -0.118806966 -0.011206411 0.04239064 -0.04684678 -0.10734729 0.10463595 0.11692938
-0.1352681 -0.1286452 0.09741595 -0.039981175 0.013678689 -0.13158232 -0.12275772 -0.115718976

siren.sine_layers.1.linear.weight f4 [128, 128, 1, 1]
00000000: 5984 f4b6 6857 07bb 6a6d 0ebc be93 81bb
00000010: ab39 073b c825 323b 46aa 323b adca 043b
00000020: 3d01 d33b 583d 0438 6ae0 503c f4b3 ec3b
00000030: 5912 143c e42d ae3a 3974 b9bb 4a2c 8b3b
00000040: a740 50ba 4b28 87bb ff4e 1bbb 104e 15bb
00000050: 51e0 a63a 18d3 0dbb 5900 57ba 6308 063b
00000060: 92b1 163a 061a 183b efab 3f3c 247b 063b
00000070: 347a 3c39 1171 3b3b c4d6 44ba 560e 96ba
00000080: 6baa 233b 7df3 983b 0c19 d7ba 7599 bc3a
00000090: d854 f9ba 4adb 32bc 0661 edba 90e4 75ba
000000a0: bd5c e7ba 0a78 beb9 b69c e8bb f9a0 b4ba
000000b0: 42f1 143a c970 d3ba c04c 183c ea93 5c3b
000000c0: fc72 303a c5d5 e9bb b661 453a c10c b53b
000000d0: c5c5 b9b9 5a6a 8dbb c864 4fba 9f6f bd39
000000e0: 4b9a eb3b 50ae 7e3b 36d2 3a3c 67d6 383b
000000f0: c5ed 24bb d6f5 423c 9a3e 6bbb 23ba c43b
00000100: 40a0 623b 8da2 863a 3942 42bb 39ef 843a
00000110: 2e0d 2bbb b594 8abc 5fff 5abb 304f 8abb
00000120: 33a0 2cba 34d9 393c 25be 9abb c538 1ebb
00000130: fc5c 1139 fbf3 c63b c67b 7539 774a dfb9
00000140: 1044 883c 7a65 6cba 5b21 1f3c d3c0 863a
00000150: b367 503a ada0 94ba 4196 133c 5100 babb
00000160: aa7b ab3b fd47 f5ba bb27 0db9 3a6d 9d3a
00000170: 606f 0539 738e 94bb bb48 5fba 72dd 59bb
00000180: 9852 903b 4819 983b 70ed 9fbb 617e 893a
00000190: f739 a8bb 8dc8 893a 1fc2 f3ba e3b2 013c
000001a0: ccad 9b39 bd00 06bc 9dd0 663b c29f eaba
000001b0: 1e89 9abb 7105 30bb a25e 9e3b 1141 b93a
000001c0: 1eac ff3a ab95 223c e3fd 54bb 45af 6fba
000001d0: c8cf 873a 9a15 e53b c6af b03a 8de3 b1bb
000001e0: e6a5 05bc 866f 413b d139 2c3b a902 9cbb
000001f0: 7b10 843b 0a3f 453b 58c5 f7bb 397c a83b
00000200: 3692 d23a 6d77 88ba 669e 353b 3525 f7bb
00000210: 0f80 8d3b 5cf5 2e3a 20c2 6eba 0843 8fbb
00000220: c522 933a b219 3fba f5b8 4abb 6653 72bb
00000230: fee0 49ba 2604 023a eabf 7b3b bdae c23a
00000240: b776 f7b8 9062 493a f79d afba 147f a03b
00000250: 0e2b 1b3b 8042 8cba ed49 1f3b f144 543b
00000260: eb40 03bb 4356 023b 43ea 35bc c415 5fbb
00000270: 080a a23b 0201 8bba cc8a 99bb 87ab 11bc
00000280: 4c75 1bbb 5d44 a039 dada 23b9 3f40 1d3b
00000290: b6f9 2bbb 175b 1739 9a97 91bb 7739 b0ba
000002a0: 7fbf fb3a a23a d83a e6b2 e1b9 4ebb 39bb
000002b0: 3e83 84ba 790a c2ba a41d 953a 63d6 db3a
000002c0: 6d07 223b 19d1 4a3b 14a1 a4ba 407f 65bc
000002d0: 87bb a83a 9bdf 84bb 2d4e 113b b5fa 7dbb
000002e0: 4376 e939 21ef 85b6 bba8 50ba 751d b83a
000002f0: 95b8 d1ba e196 7bbb 6910 c8ba 13b0 ceba
00000300: cc35 e9bb 204f 8438 5893 5fba 07af e639
00000310: 7620 1a3b e206 063b d11e 38bb 224e 25bb
00000320: bf2a 5e3c 8656 3dbc 0120 1e3c 1b69 6e3a
00000330: 1104 993a 38a7 19b9 8653 123b 1ad7 e83a
00000340: 130f 91bc d10c abbb af3a f63a 3e7b 923a
00000350: 8298 78b9 5d40 bc3a 2112 b4bb f3c0 c3b9
00000360: 9194 83bb 54cc 7f3a c25f 47bb 35aa 7b3a
00000370: 4418 1cbb 736b de3a 3943 5a3a f15e 953a
00000380: 37b6 2bbb cffa 403b fa9f c93a 335f 74ba
00000390: 95b5 1f39 5dc4 beba 8199 48b9 607b 5fba
000003a0: 6e62 1ebb 9dff ab3b 2e76 d8b9 7a2d 3dbb
000003b0: 5ea6 3c3b 60f2 b43a 29df 43ba f397 baba
000003c0: 8156 453b 1d1c 34ba c9ed 613a 49dc c9bb
000003d0: 767c 0fbb 537c 8f3b 9a4c 3b3b 0d33 343b
000003e0: 8896 adba 18eb adb9 b4d4 8fb9 293f 0cbb
000003f0: da04 99ba 28cc 07bb b559 90bb bc59 ccba
-7.287174e-06 -0.0020651463 -0.0086930785 -0.00395438 0.0020633738 0.0027183164 0.0027262135 0.0020262406
0.0064393566 3.1528383e-05 0.012748817 0.0072236005 0.009037578 0.0013288823 -0.005659607 0.004247223
-0.0007944204 -0.0041246763 -0.0023698208 -0.0022782125 0.0012731646 -0.0021640714 -0.0008201651 0.0020451776
0.0005748506 0.002320887 0.011698707 0.0020520175 0.00017974601 0.0028601328 -0.0007508809 -0.0011448364
0.0024973403 0.004667698 -0.0016410663 0.0014388995 -0.0019022478 -0.01091654 -0.001811058 -0.0009380067
-0.001765154 -0.0003632906 -0.0070987595 -0.0013780884 0.0005681702 -0.0016131635 0.009295642 0.00336575
0.0006731001 -0.007136079 0.00075295137 0.005525202 -0.000354333 -0.0043156566 -0.0007911441 0.00036132053
0.007190024 0.0038861223 0.011402657 0.0028203966 -0.0025166136 0.011899432 -0.0035895468 0.0060036345
0.003458038 0.0010271833 -0.0029641523 0.0010142095 -0.0026100385 -0.016916612 -0.0033416373 -0.0042208657
-0.0006585151 0.011343289 -0.004722374 -0.0024142724 0.00013862917 0.006071565 0.0002341113 -0.00042589355
0.016634017 -0.0009017807 0.009712542 0.0010280855 0.00079500227 -0.0011339389 0.009007991 -0.0056763072
0.0052332478 -0.0018713471 -0.00013461609 0.0012010701 0.00012725359 -0.004533583 -0.00085176126 -0.0033243564
0.004404377 0.0046416856 -0.0048805997 0.0010489934 -0.005133863 0.0010512039 -0.0018597281 0.007916185
0.00029693393 -0.008178887 0.0035219558 -0.0017900395 -0.0047160527 -0.0026858712 0.0048330585 0.0014133771
0.0019506251 0.009923379 -0.003249996 -0.00091432437 0.0010361606 0.0069911005 0.0013480119 -0.0054287375
-0.008157229 0.0029515936 0.0026279578 -0.0047610593 0.004030285 0.0030097389 -0.007561367 0.0051417616
0.0016065303 -0.0010411568 0.002771282 -0.007542277 0.0043182443 0.00066741346 -0.00091079064 -0.0043720044
0.0011225572 -0.00072899007 -0.0030932997 -0.003697598 -0.0007701068 0.00049597246 0.003841395 0.0014853101
-0.0001179999 0.00076822285 -0.0013398518 0.0048979614 0.0023676786 -0.0010700971 0.0024305538 0.0032389725
-0.0020027708 0.0019887842 -0.011103216 -0.0034040073 0.0049450435 -0.0010605159 -0.0046857353 -0.008890993
-0.0023721037 0.00030568513 -0.0001562642 0.0023994592 -0.0026241369 0.00014434416 -0.004443121 -0.001344486
0.001920685 0.0016496966 -0.00043048634 -0.0028340402 -0.0010109914 -0.0014804146 0.0011376631 0.0016772266
0.0024723664 0.0030947386 -0.0012560212 -0.01400739 0.001287327 -0.004054976 0.002217184 -0.003875417
0.00044529335 -3.991547e-06 -0.0007959713 0.0014046865 -0.0016000444 -0.0038389491 -0.001526368 -0.0015769027
-0.007117009 6.308989e-05 -0.0008528731 0.00043999424 0.0023517883 0.002045088 -0.002809454 -0.0025223573
0.013559996 -0.011556273 0.009651185 0.00090946414 0.0011674186 -0.00014653511 0.0022327616 0.00177643
-0.017707383 -0.0052200337 0.00187858 0.0011175645 -0.00023707937 0.0014362443 -0.005495325 -0.00037337057
-0.004015513 0.0009757925 -0.0030422066 0.0009600253 -0.0023818174 0.0016969278 0.0008326057 0.0011396093
-0.0026201138 0.0029446369 0.001538276 -0.0009322047 0.00015231066 -0.001455437 -0.00019130671 -0.0008525159
-0.0024167555 0.0052489773 -0.0004128678 -0.0028866217 0.0028785686 0.0013805144 -0.0007471913 -0.0014235958
0.0030111375 -0.0006870644 0.00086185016 -0.0061602932 -0.0021894253 0.0043788343 0.0028579594 0.002749625
-0.0013243714 -0.0003317229 -0.00027433562 -0.002139995 -0.001167442 -0.0020721052 -0.004405225 -0.0015590708

siren.sine_layers.1.linear.bias f4 [128]
00000000: d8e5 41bc 9804 263d e071 c2bd 7bf1 71bd
00000010: e869 58bd cf5a 4cbd 9a33 d2bc 31a2 52bd
00000020: cf78 5f3d 47ff 88bd 894b 2dbd 050e f53b
00000030: dcec d5bc 15cd 4d3d 70d7 ab3d b151 5f3d
00000040: aab2 a9bd 9dd1 4b3d 1dd6 f63b 199d b73d
00000050: c5c4 5e3d e560 52bd 3b70 45bd 48f9 9fbb
00000060: 623f 05bd bc38 423d f677 ec3c c780 55bd
00000070: 480d 96bd 3d4e b83d 184f 9abc 3614 9ebc
00000080: 6634 823d 3412 a5bd b347 f1bb 00c1 333d
00000090: e344 7bbc 8ed2 a93d 1fd9 33bd faf6 fc3b
000000a0: 98b6 583d 7228 e5bc b776 1fb9 2641 ad3b
000000b0: afcf e6bc 6005 84bd 5eab 01bd 84bd 4b3b
000000c0: 754a 33bd 41da 9b3c 761f 1c3d d88c 3d3d
000000d0: 8383 4fbd 3587 aebc 570f 0b3c 831b bdbd
000000e0: de2e 92bd dc1e 04bd c06e 42bb 6eb3 883d
000000f0: ea99 963d 6e8f 69bd c997 a9bb af2b 513d
00000100: 6cfa 18bd 9898 c73b 0a13 21bd 7394 593d
00000110: c835 263c 8628 b13d 089e 983c 71ca d8bc
00000120: ddf1 afbc cd56 b0bb d33a a63d 06d9 153c
00000130: ccf4 093d efa7 3a3d 03df 023d 03cd 9ebd
00000140: f0de 97ba 44a7 873d adaf babc f69b 34bc
00000150: 4b83 c03c 73e7 ed3c 2628 1b3d fb57 3a3d
00000160: 0c76 00bd cb24 95bd c25e 8ebd 7026 82bd
00000170: 9031 adbd eed9 99bd 8fc5 a03c c223 303d
00000180: f9c0 73bd ed47 9ebd 3883 e03b ef22 8f3d
00000190: 9119 a43d a230 51bd 9bcd 1bbd 7e51 f93c
000001a0: eeaa 8fbd d4f8 bfbd 9302 7fbd a2d5 95bd
000001b0: 5dc4 43bd 2f5d 783d eef1 73bd dd8d a4bd
000001c0: c78a b13d 331f 803d bb62 923c b880 f7bb
000001d0: 8bfc 8d3d 628a babd 8b40 44bd 4e00 413c
000001e0: 0d8e 27bd 2b54 8f3d 6e27 b1bc 592b cbbc
000001f0: 7b53 72bd c1e1 4fbd 36bd 873d 7992 7a3b
-0.011834584 0.040531725 -0.09494376 -0.059068184 -0.052835375 -0.04989129 -0.025659371 -0.05142421
0.05455857 -0.06689315 -0.042308364 0.007478478 -0.02611392 0.05024441 0.08390701 0.054521266
-0.082860306 0.04976045 0.0075328485 0.08965511 0.054386873 -0.051361937 -0.048202734 -0.0048820116
-0.03253115 0.047417387 0.028865796 -0.052124765 -0.07326752 0.08999298 -0.018836543 -0.019296747
0.063576505 -0.080601126 -0.0073632835 0.04388523 -0.015336248 0.08292113 -0.043908235 0.0077198716
0.05290851 -0.027973387 -0.00015207646 0.0052873073 -0.028175203 -0.06446338 -0.03165757 0.0031088302
-0.04377218 0.01902497 0.03811594 0.046276897 -0.05066253 -0.021304706 0.008487544 -0.09233763
-0.071378455 -0.032255992 -0.0029668063 0.066748485 0.073535755 -0.05702155 -0.005175565 0.05106705
-0.037348196 0.0060911886 -0.039324798 0.053120088 0.010144658 0.08650307 0.018630043 -0.02646372
-0.021477634 -0.005381441 0.081166886 0.009145981 0.033680722 0.04557031 0.03195096 -0.07753947
-0.0011586826 0.066237 -0.022788847 -0.011023512 0.023500105 0.029041028 0.037880085 0.04549406
-0.03136258 -0.07282408 -0.06951667 -0.063549876 -0.08456719 -0.0751227 0.019625453 0.04300285
-0.059510205 -0.077285625 0.00685158 0.06989085 0.08012689 -0.05107177 -0.038037878 0.030434366
-0.07015024 -0.09373632 -0.062258314 -0.07316138 -0.04779469 0.06063574 -0.059556894 -0.08034871
0.08669048 0.06255951 0.017869344 -0.0075531863 0.069329344 -0.09108426 -0.047913115 0.011779858
-0.040906955 0.06998476 -0.021625247 -0.024800943 -0.059161644 -0.050752405 0.06627886 0.0038234277

siren.sine_layers.2.linear.weight f4 [128, 128, 1, 1]
00000000: 4c72 ec3a 9f3d a53a 4ee4 d63a b946 2abc
00000010: af9d 54bb 98c8 c9bb c889 72bb 9f02 38bb
00000020: e44c 3e3c ccd2 3f3b 615e eeb8 5ac7 243b
00000030: af6f 8a3a e6a5 833b 8a90 f539 5505 083c
00000040: 0774 f2ba ae64 6b3b a9bb 2c3a 6c63 9839
00000050: 1cf5 f739 3126 913a aeff b83a 4d05 d13a
00000060: 3827 803b 0b30 a63b 2ca1 d03b 54d1 0d3b
00000070: 6879 21bb 23b4 7e3a 6092 e33b 7fbe 83bc
00000080: cf57 333c 51c2 523a 6880 78ba b41d b6b5
00000090: 02ac 0abc 11cf a4bb 7c3c 2eba d26b 083a
000000a0: fa03 1139 e46e 3cbb bb50 943b 1e14 adba
000000b0: a31a 4abb c3d6 a2b9 b8fd 73ba a96c c33a
000000c0: a9f7 32ba 5cf9 32bb 9369 883b 2bb0 9e3a
000000d0: a415 c139 7884 8dbb c09f 98bb 13d1 493b
000000e0: 0940 1c3a 8f95 4cbc b855 7e3b 437c 673b
000000f0: 1ec8 f3ba 833b 053b 1e77 47bb f461 833b
00000100: 4b67 e03a 9ef3 11bb 9cd8 a93b 3ca3 7cba
00000110: 5fe4 e6bb abe5 823a c229 2fbc 7631 8bbb
00000120: 66bf 67bb 7a1d 283a c968 a13b b230 d2bb
00000130: b4fb 1d3b c5c6 dab9 ddd5 2eba 5923 093c
00000140: ef1f 1fbb 76db ab3a 9aa8 1bbc 0ddc fabb
00000150: a6eb a43a ba69 d9bb 6d1e b939 be82 9fb9
00000160: 9ba9 a1bb e9e5 2bbb a946 09bc dd68 8fba
00000170: db50 39bc bdee 6a3b d060 5dbb c36a 90bb
00000180: a716 1dbb a63a 1abc 647f 46bb adb2 a7bb
00000190: 049f 613b 065b 05bb 29d1 f53a 2d90 baba
000001a0: 2c8d d23a bbef eabb c52d f1ba fc39 083b
000001b0: 9971 d93a c9a5 943a f2bd acba a7c6 743b
000001c0: 72a0 a8ba 33cd ad39 3ec9 32bb 9180 05b9
000001d0: bc1d c0b9 7c3e 8dba 108b 80bb 568a f5ba
000001e0: a4f8 033c c25c ddbb 12ab 96ba df15 83bb
000001f0: f15c eeb7 c59e 06bc 3903 2b3b 2fd7 9dbb
00000200: 9aa3 b5bb b88e 913b 50a0 c7bb 298b d63b
00000210: 879a 923b 3246 183c a0e0 173a 184f d63b
00000220: 2ce3 62bb 177b 8c3b 08a2 3b3c eb1c e93b
00000230: 6e75 073a 190a 8abb 12f7 72ba e8f1 f5bb
00000240: bd12 933a 9604 83ba 3ea1 ecba c5b1 acba
00000250: d77b d3ba e11a c4ba a02e 89ba 883a 01bb
00000260: 155d 80ba f3d6 093b 5063 2ebb cc66 8ebb
00000270: bb1f 21ba 6908 b4ba 21a2 7c3b ace5 323c
00000280: fea4 dcbb d659 25b7 7812 a139 7932 74bc
00000290: 6168 053c 8fd1 353b 6d1c 1a3b 31f2 f7bb
000002a0: 03c8 af3a 1b50 68bb bcda c83b a5f2 4fba
000002b0: 5d02 81bb ee89 19bc 3df2 3a3b ddae 62bb
000002c0: 1aad 53ba 7d1e ec3b cbd1 51ba 0619 613b
000002d0: 292d b8b8 cb79 eb3b eb8a 2eba e964 11bc
000002e0: 1511 3e3c 817a 803a 507b 7c3a 452a 80bb
000002f0: 87fb 6abb d286 c03b 1f5a b03a f33f 783b
00000300: bdf7 14ba 7565 393a 5dbf 043b 7979 343b
00000310: c136 053a a2b5 15bc b5dc 35bb ca7a cd3b
00000320: 4693 f5bb 0256 b23c 1681 673b 63d0 5e3b
00000330: 6cca 133c 0114 473b 60ce 1f3c 172c 0fb8
00000340: 3e33 e0bb 333d ef3b 6144 a6bb 80f0 0bbb
00000350: 0a91 e93a 56d5 913b 981d 28bb a081 01bc
00000360: 04ce b9ba 6962 8c3a 6814 0539 7be2 bbba
00000370: 7872 8b3b 62e4 2dbb 0f08 06bc 2c87 4f3a
00000380: 199c ba3b 6708 1d3b bc15 3bbb 16d3 8e3a
00000390: b123 673a 5359 773b c644 efba bb8f f1bb
000003a0: 2a09 383c ca83 e0ba d822 16bb f692 61bb
000003b0: 0122 263b 1fe1 0fbb 9ab2 223b 9eef 86b9
000003c0: 2a45 5f3c 91fd 9abb 81cc 8bbb bba6 25bc
000003d0: c50e 5a3c d0e8 6dbb af36 d5b9 7383 343a
000003e0: 9dd1 a73b 959b fa3a 9f4a 053c 7046 21bc
000003f0: ac6f 2f3c 4fc7 ae3b fe7f 033b bf7e 283c
0.0018039434 0.0012606865 0.0016394944 -0.010392838 -0.003244262 -0.006157946 -0.0037008394 -0.0028077734
0.011615012 0.0029269932 -0.00011366304 0.0025143237 0.0010561849 0.0040175794 0.00046837731 0.0083020525
-0.0018497714 0.0035918164 0.0006589243 0.00029065774 0.00047294132 0.0011074004 0.0014114284 0.0015947014
0.0039109252 0.005071645 0.0063668694 0.0021639662 -0.0024639014 0.00097161735 0.0069449395 -0.016082047
0.010946228 0.00080398197 -0.0009479583 -1.3568701e-06 -0.008463861 -0.005029567 -0.0006646586 0.0005204055
0.00013829759 -0.002875262 0.0045262254 -0.0013204848 -0.003083863 -0.00031059058 -0.00093075214 0.0014909703
-0.00068270654 -0.0027309274 0.004162976 0.0012106946 0.00036827952 -0.00431877 -0.0046577156 0.0030794784
0.000596047 -0.012486829 0.0038808417 0.0035321868 -0.0018599068 0.0020329661 -0.003043599 0.0040094797
0.0017120627 -0.0022270451 0.0051832926 -0.0009637361 -0.007046267 0.0009986659 -0.010691108 -0.0042478396
-0.0035361885 0.0006413084 0.0049258214 -0.0064144963 0.0024106326 -0.00041728295 -0.00066694414 0.008370244
-0.0024280509 0.0013111669 -0.009500647 -0.0076556266 0.0012582436 -0.006634918 0.0003530862 -0.00030424254
-0.0049335486 -0.0026229566 -0.008378663 -0.0010941286 -0.011310781 0.0035847866 -0.0033779629 -0.0044072582
-0.00239698 -0.009413397 -0.0030288333 -0.0051177354 0.0034427056 -0.0020348444 0.0018754351 -0.0014233642
0.0016063801 -0.0071696914 -0.0018400481 0.0020786515 0.0016589641 0.0011340912 -0.0013179167 0.0037349851
-0.0012865199 0.00033150017 -0.0027280594 -0.00012731763 -0.00036643248 -0.0010776068 -0.0039228275 -0.0018733244
0.008054886 -0.0067554424 -0.0011495075 -0.00400041 -2.841509e-05 -0.008216565 0.002609445 -0.0048169116
-0.0055431845 0.004442062 -0.006092109 0.006547351 0.0044739875 0.00929408 0.00057936646 0.0065401904
-0.0034620268 0.0042871344 0.0114522055 0.007114043 0.00051673397 -0.0042126295 -0.0009268384 -0.007505644
0.0011220794 -0.0009995874 -0.0018053425 -0.0013175538 -0.001613493 -0.0014961624 -0.0010466166 -0.0019718725
-0.0009793366 0.002103266 -0.0026609488 -0.0043457504 -0.0006146391 -0.0013735417 0.0038548785 0.010919016
-0.006733536 -9.855683e-06 0.00030722073 -0.014904612 0.008142562 0.0027743315 0.0023515478 -0.0075667133
0.0013411049 -0.0035448137 0.006129591 -0.000793258 -0.0039370493 -0.009371264 0.0028525733 -0.003458909
-0.00080748054 0.007205783 -0.0008003979 0.003434719 -8.7822154e-05 0.0071861497 -0.00066582736 -0.0088741565
0.011600752 0.0009802134 0.0009631412 -0.003911289 -0.0035855488 0.005875447 0.0013454593 0.0037879914
-0.0005682668 0.0007072308 0.0020255663 0.0027538224 0.00050817063 -0.009137543 -0.002774996 0.006270741
-0.007494363 0.021769527 0.0035324744 0.003399872 0.009020429 0.0030376913 0.0097537935 -3.413492e-05
-0.006842046 0.0073009967 -0.0050740694 -0.0021353066 0.0017819714 0.0044504805 -0.0025652405 -0.00790444
-0.0014175777 0.0010710481 0.0001269147 -0.0014334464 0.004255589 -0.0026533832 -0.008180632 0.00079165655
0.005694878 0.0023961307 -0.002854689 0.0010896649 0.0008817269 0.003774245 -0.0018254749 -0.0073718703
0.011232654 -0.001712912 -0.0022908952 -0.003441987 0.0025349858 -0.002195425 0.0024825693 -0.00025737
0.01362733 -0.0047299345 -0.004266322 -0.010110552 0.013309185 -0.0036302097 -0.00040667268 0.00068860425
0.0051214234 0.0019119853 0.008135467 -0.009843454 0.010707777 0.005333818 0.0020065303 0.010284125

siren.sine_layers.2.linear.bias f4 [128]
00000000: 3094 543d 5389 4abd a3c3 133c 26b8 cbba
00000010: 5a9c b93d 1021 a43d b4ff 82bd f66e adbc
00000020: 2254 203d 0715 ae3d 378b 583d af70 30bd
00000030: 310a 0bbd af16 ffbb 7a8c a2bd 7097 13bc
00000040: 9396 bc3d 3351 1d3d 3951 f53c efbe 2b3d
00000050: b5e4 8cbd 73f2 9f3d d9e5 273d 9fa7 0dbd
00000060: dfe1 a43d 25c3 e8bc a4c0 78bd 6243 02bd
00000070: 3d48 173d f890 2bbd 7a6b 9a3d 3ce8 9e3d
00000080: 4066 003d 0b6d b0bd ceed 883d 3482 2c3c
00000090: 8488 36bd 026d 9abd bf38 9abc 05b1 2e3d
000000a0: 48ee d13d 8bc5 183c 816e 12bc 9b48 ad3d
000000b0: 0adc 80bd 6443 6e3d 3dd1 5a3c ad30 7ebd
000000c0: 8c1e 88bd 69bd b0bd 717a b9bc be6b 763d
000000d0: f287 acbd ddda 243c b558 37bc 42d9 763d
000000e0: c0f6 8dbd e3e1 42bd 3f9c 78bd 8851 57bd
000000f0: 90dc 223d 125a 803d 5831 28bd 5f8a 95bc
00000100: e9a0 8c3d 9b37 153d 3b93 663d 34dd 4c3c
00000110: 7a77 403c 8c78 a13d c46e 6e3d 6f7d cdbc
00000120: d676 9a3d 6ab6 5d3d 837b b2bd a705 9d3d
00000130: 8612 aebd 116e 89bc e987 a7bc edda 093d
00000140: d102 52bc b406 023d de3e 4f3c fe0a 8d3c
00000150: 6c17 5bbd 6119 af3b 5484 a5bd 187e 98bd
00000160: fd91 60bd ec64 233d 906a 373d 6f64 2e3d
00000170: a2f8 38bd d4f7 063d 2160 933d 7879 83bd
00000180: 1054 b33b 6af5 893c b439 953d ade8 acbc
00000190: be7e 0cbd 97bb a53c 834e d3bb fb33 a8bd
000001a0: cd86 46bd 7ffe 56bd 23f6 123d ab0c 743d
000001b0: a67b 5b3b 6059 86bd cca0 3bbd 7a42 ecbc
000001c0: 396b 8abc 0308 94bd cbf3 d73b 1752 3ebd
000001d0: fc33 30bd cb53 1fbd 5756 46bd cecd aabb
000001e0: c325 553d f24c 903d a6b6 433d afba c83c
000001f0: 9ab7 06bd a08c 8d3d d030 a83d c85e a13c
0.051899135 -0.04944737 0.009018811 -0.0015542551 0.09063025 0.08014119 -0.06396428 -0.021171074
0.039142735 0.085001044 0.05286714 -0.043076213 -0.033945266 -0.0077846865 -0.0793695 -0.0090082735
0.09208407 0.038407516 0.029945957 0.041930135 -0.0687956 0.078099154 0.040990684 -0.034583684
0.08050894 -0.028413365 -0.06073059 -0.031802543 0.036934126 -0.0418863 0.07540031 0.07759139
0.031347513 -0.08614548 0.06685983 0.01052909 -0.044563785 -0.07540323 -0.018825887 0.042649288
0.10250527 0.009324442 -0.008937479 0.08461114 -0.06291969 0.058169737 0.01335555 -0.06205814
-0.06646451 -0.08629877 -0.022641392 0.060161345 -0.08424367 0.010061947 -0.011190583 0.060265787
-0.069318295 -0.047578704 -0.060695883 -0.05256799 0.039761126 0.062671795 -0.041062683 -0.018254457
0.06866629 0.036429983 0.056292754 0.012503911 0.011747235 0.078843206 0.058211103 -0.025084225
0.075421974 0.05412904 -0.08714964 0.07667094 -0.08499627 -0.016776117 -0.02045055 0.03365605
-0.012818054 0.031744674 0.012649266 0.017217156 -0.053489134 0.0053436016 -0.0808188 -0.074459255
-0.054826725 0.03989117 0.04477936 0.04257625 -0.04515899 0.03295119 0.071960695 -0.06419653
0.0054726675 0.016840655 0.072863966 -0.021107042 -0.03430056 0.020231051 -0.0064485683 -0.082130395
-0.0484684 -0.0524888 0.035879266 0.059582394 0.0033490448 -0.06560016 -0.045807645 -0.028840292
-0.01689683 -0.072280906 0.0065903417 -0.046465006 -0.043018326 -0.03889827 -0.048422184 -0.005212522
0.052037966 0.07045926 0.04778161 0.02450308 -0.03288994 0.06911588 0.08212435 0.019698516

siren.sine_layers.3.linear.weight f4 [128, 128, 1, 1]
00000000: 5c2b 3c3b 9f00 673b b45b 173a b0f1 003c
00000010: 9126 c33b 3cc7 b03b 7948 0a3b 4ed0 21bb
00000020: 42dc 2fbb d6a5 7dbb 12a2 31bb a25c d439
00000030: 08e2 e23b c54e 313c d73f 0cbb 15fc 0bbc
00000040: b9db cd3a d2e2 803a bf78 a5b9 3cdb 00bb
00000050: 9ad4 24bc 10c3 e53b 5ed6 eb3b 95a6 663b
00000060: 0df4 b83a ff64 96bb 9821 133c f14a 763a
00000070: a876 f637 f4e3 713b a4f5 883b 3977 e33a
00000080: afe9 983b a5d6 903a 18ac 09bb bf41 8ebb
00000090: d677 8bbb 0592 9dbb 2717 153b eec1 99ba
000000a0: 59b5 abba cbea 0d3b 1447 a2bb 1c41 8b3b
000000b0: 0239 d63b 492d f7ba 98db d5ba 4b2d c83b
000000c0: d0e5 463b b15d d4bb dc17 c9bb fd69 393a
000000d0: 7623 aeba 51c1 0a3b 0310 53bb 551e 013b
000000e0: 0452 823a 820e e33b daf4 f53a 13aa 6a3a
000000f0: e2ea f939 52e1 eaba c1f8 81bb 3b90 123c
00000100: 1181 8dba 6a05 51bb 5d44 6f3a a999 a43a
00000110: 9ae7 6bba 40d8 fcbb 293e bc39 41c4 073b
00000120: c0ed c9bb 2c07 8eba 3391 a1b9 2e86 13b9
00000130: 8805 4bbb 98f3 d93a d46f 9fbb fdfd 8638
00000140: ea9a 40bb ff26 1c3c f353 35ba c94c 78ba
00000150: 5002 12bb bac5 333b 3fcc f6bb b73e b33a
00000160: 8074 ee3b 31ff 433a 8879 a93a 31ff d4bb
00000170: 590b 2d3b b3cc 6a3b 98e7 1bbb 220b 923a
00000180: 79d5 763a 632f d23a b705 3dbb 7bf7 47ba
00000190: 6356 7c3c d029 51bb 04d3 83ba b8e6 913b
000001a0: 29d2 2cbb ba32 223a 1168 4abb 1609 253c
000001b0: 4aac a0ba 20f5 a83b f6c2 6ebb fc8c a43b
000001c0: d657 15b9 23e7 583b 194f 83bb 7642 e339
000001d0: bdc2 cd3a 0bf4 b33a 3958 c43b 51a7 883b
000001e0: e4f3 aabb 6d34 e73a 286b c4bb 5252 efbb
000001f0: 0a01 903a 0c19 09bc 7f60 1cbb ad9c b9ba
00000200: 5466 4f3a 50e1 c7b9 6cd0 e5bb 06cc 3fbb
00000210: c47c 23bb 2b90 b4ba 52e6 043c ad4b c7ba
00000220: a519 6cba 92a7 3bbb 8bb7 703b ea17 8b39
00000230: 700e 7abc 1068 3d3c 6d9f 5ebb 2045 b13b
00000240: 9ddb 293c d2b6 09bc 195d 6fbb c697 a439
00000250: f118 59bb 675a cc3a a6a3 8dbc ae1b f73a
00000260: 857a 46bb f442 553a 3520 623c 272e 153b
00000270: ba73 b4ba 1707 9f3b 964b 32bb 1868 163b
00000280: 43fb 0d3b 7dc3 c839 e92b b23b 376b bdbb
00000290: 11e2 31bb d36b 183b f212 2e3c 3882 37ba
000002a0: 9105 51bb abdd a4bb 7ce0 19bc f7c1 79bb
000002b0: 9f49 303c f663 a13b 6245 80bb 433b 3e3b
000002c0: d391 323a edf9 783b dd0a 6cbb 4c87 1d3b
000002d0: 6b1a ca3b d2e6 1bbc 756f 053a 3872 db39
000002e0: 5713 ef3b 072b 013b 2fe6 833c 8d20 b63b
000002f0: eb36 d4ba c784 613a f4f7 9bbb 361d 0c3c
00000300: cf6f c4bc 90c1 0d3b 085b d03b 2b3f dc3a
00000310: 6020 95b8 808a 1c3b f028 52b9 5f7b b4bb
00000320: 8638 adba 2363 39bc c010 01bb efc4 c73a
00000330: 4dfb ff3b 24f5 54bb 71c1 693b 718f 09bc
00000340: bb21 343b a9f6 353b dca6 fdbb 1c5c bb3b
00000350: 7afa b8ba f617 2c3b c104 c7b9 b70c 0fba
00000360: a28c 2cbb 36e9 463c 78c5 03bc 1b64 7ebb
00000370: 4a76 5239 3785 b63b 6506 b0ba b6ca 483b
00000380: 6641 3a3c 4562 bb3b 0608 c33a 95b2 15bb
00000390: cf53 883c b942 463b 0d62 33ba 44c8 363b
000003a0: 751d 153c df23 d2ba 86b9 c7bb 3c18 81bb
000003b0: 131a 1d3a a300 4c3a 4976 573b 8cae d13b
000003c0: ff56 92bb 21c4 65ba db94 4c3c 67a5 073b
000003d0: 5538 0d3c f719 0e3b 10a6 2bbb f761 88bb
000003e0: 94f2 d53b c92c 4a3c ca4d 8ebb 4426 6abc
000003f0: b3c9 053b 853b f1b9 83a9 7cbb 40dd 8cba
0.0028712368 0.0035248173 0.00057738577 0.007870123 0.005955525 0.0053948443 0.0021100326 -0.002469081
-0.0026834165 -0.0038703582 -0.0027104658 0.00040504808 0.0069239177 0.010822003 -0.0021400356 -0.008543988
0.0015705741 0.0009833223 -0.00031561215 -0.0019661924 -0.010060454 0.0070117787 0.0071971854 0.0035194505
0.0014110819 -0.0045896764 0.008980177 0.00093953224 2.9380739e-05 0.0036909552 0.0041796733 0.0017354257
0.004666529 0.0011050297 -0.0021007117 -0.0043413336 -0.004256229 -0.0048086667 0.0022749396 -0.0011730769
-0.001310031 0.002165484 -0.004952321 0.004249705 0.0065375576 -0.00188581 -0.0016316054 0.006108915
0.0030349381 -0.0064808954 -0.0061368775 0.00070729834 -0.0013285715 0.0021172354 -0.0032205589 0.0019701917
0.0009942655 0.0069292197 0.0018764988 0.00089517346 0.00047667982 -0.0017919934 -0.0039664214 0.00894552
-0.0010795911 -0.0031894096 0.00091273134 0.0012558001 -0.000899905 -0.0077162087 0.00035904467 0.0020716342
-0.006162375 -0.0010835878 -0.00030816495 -0.00014068998 -0.0030978639 0.0016628383 -0.004865626 6.436927e-05
-0.002938921 0.009530782 -0.00069171115 -0.0009471891 -0.002227921 0.0027431087 -0.0075316723 0.0013675307
0.0072770715 0.0007476686 0.0012929896 -0.0065001477 0.0026404469 0.0035827577 -0.0023789164 0.0011142234
0.0009415965 0.0016035851 -0.0028842518 -0.0007628125 0.015401456 -0.0031915791 -0.0010057394 0.0044525526
-0.0026370382 0.00061873684 -0.0030884782 0.010072967 -0.0012258377 0.0051561743 -0.0036432124 0.0050216895
-0.00014242469 0.0033096753 -0.004007232 0.0004334633 0.0015698295 0.0013729347 0.0059919623 0.0041703363
-0.0052170623 0.0017639525 -0.0059942193 -0.0073035145 0.0010986638 -0.008367788 -0.0023861227 -0.0014161073
0.00079116714 -0.0003812411 -0.007013371 -0.0029265895 -0.0024946192 -0.0013775876 0.008111553 -0.0015205048
-0.0009006507 -0.0028633815 0.0036730494 0.00026529963 -0.015262231 0.011560455 -0.0033969537 0.0054098517
0.010367301 -0.008405404 -0.0036523996 0.00031393598 -0.0033126439 0.0015590907 -0.017289948 0.0018852854
-0.003028543 0.0008135282 0.013801624 0.0022763105 -0.0013767399 0.00485314 -0.0027205697 0.0022950228
0.0021664656 0.00038292623 0.0054373634 -0.0057806033 -0.0027142803 0.0023257628 0.010624634 -0.00070003
-0.0031894187 -0.0050313077 -0.0093919 -0.0038109997 0.01075974 0.0049252464 -0.003914521 0.0029027022
0.00068118906 0.0037990764 -0.0036017217 0.0024036942 0.0061677 -0.009515481 0.0005090156 0.00041856035
0.0072960067 0.0019709484 0.016100971 0.0055580796 -0.0016190683 0.0008602854 -0.004759783 0.008551886
-0.023979096 0.0021630265 0.006358508 0.0016803493 -7.110904e-05 0.0023886263 -0.00020042411 -0.005507871
-0.0013215698 -0.01131514 -0.0019693822 0.0015241186 0.00781194 -0.0032494748 0.0035668279 -0.0083960155
0.0027485925 0.002776543 -0.0077408385 0.0057177674 -0.0014112734 0.00262594 -0.0003795978 -0.0005456912
-0.002632894 0.012140563 -0.008042686 -0.0038816992 0.00020071227 0.0055700797 -0.001342964 0.0030638403
0.011368131 0.0057185018 0.001487971 -0.002284204 0.016641526 0.0030252172 -0.0006842919 0.0027890364
0.009101261 -0.0016032419 -0.006095114 -0.0039396565 0.000599296 0.00077820773 0.00328769 0.0063989814
-0.004465937 -0.0008764882 0.012486662 0.0020697953 0.008619388 0.0021682957 -0.002619151 -0.004162069
0.0065291617 0.012339779 -0.0043427693 -0.01429135 0.0020414412 -0.00046011448 -0.0038553185 -0.001074709

siren.sine_layers.3.linear.bias f4 [128]
00000000: c256 89bd e16e 17bc 883e 293d 4ab8 0b3c
00000010: e9b4 8fbd 6e5c ef3b 1d3f 8e3d 599b 08bd
00000020: 17c4 28bd b171 34bc 39ce ac3d c738 823d
00000030: b7d1 93bd 9360 a6bd 125b 6a3d da0c 01bc
00000040: 5e2f 693d 0191 f83b 0933 253d 0e79 b13d
00000050: 7ade 5abc 964d d9bc 082f 9bbd 7be7 7abc
00000060: f9f6 8a3d b17c 303d 57a4 293d 2ee4 703d
00000070: ec21 bc3b 075a 4dbd 6e8e d33b d796 78bd
00000080: e0e1 01bd dba4 afbd afc8 323d b225 93bd
00000090: bae5 b63d 7ed0 013d 41e7 9f3c 528b e23c
000000a0: 028c 44bc 8eb2 0fbc 6a92 3e3c 7302 3ebd
000000b0: dd6c 5c3d a8cd 86bd e537 423d 1b0a 94bb
000000c0: 7aa9 ba3d e32a 91bd 9df8 8f3c 69a5 89bd
000000d0: 3a46 0b3c 36bd 07bd b42c 60bb 3bd8 7fbd
000000e0: a5e8 b53d 185b 843d 86c7 223c f20a 8b3c
000000f0: ad12 703d faa3 31bd 90b3 58bd f9f6 f0bb
00000100: f9db 293d d4d0 2dbc a3c9 663d 44f4 14bd
00000110: c54f 523d 8eb7 c8bd 7f50 5ebd 5036 9e3d
00000120: 3ee4 b3bd a6a9 7eb9 8f16 bfbc c41d 35bd
00000130: 0b3c 2e3d 7dd8 583d 5058 063c f9c7 31bd
00000140: 4201 823d c2b1 253d 820e 9f3d 0b21 4abd
00000150: 2b7e f63a 9d69 113d 1916 94bd 18c3 67bd
00000160: aa96 71bd 3720 11bc 0e04 113d 9461 56bd
00000170: 786b 90bd 985a 973c df39 673d d3e3 de3b
00000180: 8af8 d63b 4599 8ebd 19d3 89bd 753a 94bd
00000190: cdab a1bd 16d6 cb3c 0ec7 673d 7c04 84bc
000001a0: af22 92bd a0ab 42bd 1ac6 093d 2a6f a0bc
000001b0: bbc2 22bd 388d 3e3d f824 9dbd 7676 72bd
000001c0: 1ece 1fbd 56f7 dbbc d34d efbc 3a45 9abd
000001d0: 5bca a13d 4a14 71bd 94a9 3bbd 2115 34bd
000001e0: f14f 5e3d 0464 4d3d af65 373c 7263 7f3d
000001f0: f378 c83b 061d 7ebb e51f d33c 6a9a b53d
-0.06706001 -0.009242744 0.0413194 0.008527825 -0.07016928 0.0073047196 0.06945632 -0.033351276
-0.04120263 -0.011013434 0.08437771 0.06358486 -0.07217734 -0.08123889 0.057215758 -0.007876599
0.05692994 0.007585645 0.040331874 0.086656675 -0.013358707 -0.026526254 -0.0757733 -0.015313978
0.067853875 0.043087665 0.041416492 0.05881136 0.0057413485 -0.050134685 0.006456188 -0.060690727
-0.03170955 -0.085763656 0.043648418 -0.07184924 0.089305356 0.031692974 0.01951945 0.027654324
-0.011996271 -0.008770598 0.0116315875 -0.046389055 0.053814758 -0.065821946 0.047416586 -0.004517806
0.09114356 -0.07088258 0.017574603 -0.067210026 0.00850063 -0.03313943 -0.0034206333 -0.062462073
0.08882264 0.06462687 0.009935265 0.016972993 0.05861156 -0.04336927 -0.05290562 -0.00735366
0.041469548 -0.010608871 0.05634464 -0.036365762 0.051345605 -0.09800635 -0.054275986 0.07725203
-0.08783768 -0.00024286527 -0.023326186 -0.04421784 0.04253773 0.052940834 0.008199766 -0.0434036
0.06347896 0.040452726 0.07766439 -0.04934792 0.0018805912 0.03550111 -0.07230777 -0.05658254
-0.058981575 -0.008857778 0.035404257 -0.05233915 -0.07051748 0.018475816 0.056451675 0.006802061
0.00656039 -0.069628276 -0.06729717 -0.07237712 -0.078940965 0.024882358 0.056586318 -0.01611542
-0.071355216 -0.047526956 0.03363619 -0.019584257 -0.03973649 0.046521395 -0.07673067 -0.059195004
-0.039014928 -0.026851337 -0.029211914 -0.07532735 0.07899924 -0.05885724 -0.04581602 -0.043965463
0.054275457 0.05014421 0.011193677 0.062350698 0.006117934 -0.0038774624 0.025772044 0.08867343

siren.sine_layers.4.linear.weight f4 [128, 128, 1, 1]
00000000: 021c c5ba 0cbb 87bb 748f c03b 3f39 9b3a
00000010: 65b6 eebb 431b 743b 89c3 813a 641c 983a
00000020: 667f c0bb f5a8 353b fccf bf3b eec7 863b
00000030: 2baf 773b 807c 07bc 45cf b6ba 41c9 0e3c
00000040: f2a3 623b 0b6c a739 aefa 043b e891 9e3b
00000050: 79c0 15bb 8563 c43b 53ef 69b9 113c ee3b
00000060: b74a d639 decd fc3a 049c a83b 3b00 99bb
00000070: 0979 a1bc b25b 8fbc f088 3dbb f059 ebba
00000080: 089a c93a d8b6 263b a6b2 74b9 3aa0 a6b9
00000090: 08ce 98bb 272d 173b d9b7 a9bb 14f6 0bbb
000000a0: 3ca9 17bb 4c04 47ba 9290 a43b 47ed c9bb
000000b0: 159c 2abb 4b66 493a 907e 7abc 674e 73bb
000000c0: e721 9a3a 6c57 3d39 a36c 53bb 1f75 ebba
000000d0: fbc4 1eba 57dc 013c c3a6 98ba 2d13 16bc
000000e0: 4926 7ebb 46fb aebb 60ce 423b 7d67 783b
000000f0: 30c0 913b 4179 d63b 7fc7 f4bb cde8 bf39
00000100: c3c5 1f3c eae1 d03b 1450 2e3b 4086 9a3a
00000110: 47c2 8aba 7098 223a 4164 333b e923 11bc
00000120: ecb3 1dba be16 e8bb c04d 083b ed21 0c3b
00000130: fea2 fe3a a02e c1bb ed1f 1fbb b4d5 dcba
00000140: 8e4f 90b7 d478 d039 6f01 75b9 be53 963b
00000150: f6d3 58bb e4b9 9f3b cf9d 363b 90e9 69ba
00000160: 4a39 4d3a bac8 19b9 d8c0 143a f392 2c3b
00000170: c236 06bc 9373 ed3b b825 0b3c 2f6b 2bbc
00000180: 6574 123c 95e1 623b 2795 40bb 1000 22bc
00000190: fddd 86bb 16bf c83b 287a fd39 729f 10bc
000001a0: 8c15 163b 935f 95bb ccb7 9d3b 33e0 8d3a
000001b0: 8fa2 793b 29c6 ab3a 7590 6abc 6fd3 a7ba
000001c0: 953f 093c c56f 083c df2f 1c3c 8dd5 ea3a
000001d0: a700 d43b 964d babb 21a8 443a b8ce 1f3c
000001e0: 56ec 863b 2a44 13bc 2e28 f63a e4b0 23bb
000001f0: cb99 813a 605c 233b 8c8b f9bb adc2 d73b
00000200: 4aca b1bb 2a6f e33a 0db5 1bbb ef2b 67bb
00000210: c9ed ec3b 5922 49ba 7842 3fbc 72df 3d3b
00000220: 279e aa3b 6aba ab3a b83b fdba a951 9aba
00000230: 962a 493b 9d96 d8bb 00ed a0bb d313 4d3b
00000240: 39ea e4ba 475c 893b 136e 7c3b 0306 e7ba
00000250: 7818 203b 9fb8 9dbb 5a12 04bc ad68 d2ba
00000260: 2462 88ba 6465 c5bb 5503 d9bb db96 bb3b
00000270: e6b8 253b ac73 283b 6c6d b9bb 731e c63b
00000280: 4f24 e3bb d598 42bc 38ce 3cbc 0857 0c3a
00000290: 5c39 d6bb 6790 dc3b c6d9 62bb dba1 e9bb
000002a0: b832 493a da03 06ba 5e57 b1bb f30f c9bb
000002b0: 1909 b23b a543 c03b c8b2 213c e6d1 4c3b
000002c0: 4504 2bba 6dfc dbba c184 c53b 888b be3b
000002d0: 312f a8bb 8b87 caba b638 f0b9 4c33 2a3c
000002e0: 37b2 11bc d661 17bb 5711 fbbb b0df 43bc
000002f0: 949e a23b c41e 30bb eab8 283b 0f27 49b9
00000300: f147 37bb 6451 a0bb c9a9 113b d5b9 d3bb
00000310: ec3c fcbb ae93 dbbb 12f6 403b f03a 4cba
00000320: 2cd0 f53b e6a3 7b3b fb28 61bb 4bff fb3a
00000330: 9333 6d3b 2e5d dc3b 7156 ff3b 5368 2e3b
00000340: f0cb 033c 0244 f739 e34d 8d3b c6e8 39bb
00000350: 0630 23bb f54c 24bc a19b 1dbb 290a aa39
00000360: 78e6 ffbb 0ae6 013c 0f25 193a c469 493b
00000370: 9ff0 773b 5581 86bb 276a 23bc 92cf 833b
00000380: e7ed a2bb d849 cb38 ba76 543c b56d 4d3b
00000390: 0b0f 43bb a952 a8bc 569d d0bb 677a 0d3c
000003a0: dd16 043b 25d6 9f3b 173f 52bb f146 383c
000003b0: c39f 04bb 8d9b bf3b 54fe bf3b 1ad4 183c
000003c0: ee9c 2d3c 508f c1bb 0524 8cba f111 083c
000003d0: 6dbc 98bb 0687 bc3b 867e 5f3b 8707 603b
000003e0: 1fde 3dba 8040 b8bb 8d9e 373b e68b 81bb
000003f0: 074d a1bb 23a3 11bc 599b 45bb 9dca fa3a
-0.0015038254 -0.004142171 0.005876476 0.0011842622 -0.0072849267 0.0037247695 0.0009900193 0.0011605141
-0.005874562 0.0027719114 0.005853651 0.004113189 0.0037793617 -0.008269429 -0.0013947269 0.008714975
0.0034582582 0.0003193322 0.0020291018 0.0048391707 -0.0022850318 0.005993309 -0.00022309767 0.007270344
0.00040872928 0.0019287427 0.0051455516 -0.004669217 -0.019711034 -0.017499778 -0.0028920732 -0.0017955881
0.0015380988 0.0025438573 -0.00023336205 -0.00031781365 -0.0046632327 0.0023067684 -0.005179387 -0.002135639
-0.0023141643 -0.0007591888 0.005022117 -0.006162319 -0.0026032974 0.00076827843 -0.015288964 -0.003712559
0.0011759371 0.00018057012 -0.0032260797 -0.0017963982 -0.0006056574 0.007926068 -0.0011646379 -0.009159845
-0.0038780144 -0.0053400127 0.002972506 0.003790348 0.0044479594 0.0065452163 -0.007470071 0.0003660381
0.00975174 0.0063745873 0.0026598023 0.0011789277 -0.0010586464 0.00062025245 0.0027372988 -0.008858659
-0.0006015885 -0.007082789 0.0020798296 0.0021382526 0.0019427238 -0.0058954507 -0.0024280504 -0.0016848356
-1.7203183e-05 0.00039762876 -0.00023365555 0.0045876196 -0.0033085323 0.004874455 0.0027865057 -0.0008923048
0.0007828666 -0.00014665994 0.0005674488 0.0026332706 -0.008191766 0.0072464435 0.00849288 -0.010462566
0.008938883 0.003461932 -0.0029385777 -0.00988771 -0.0041158185 0.006126295 0.00048346934 -0.008827077
0.0022901027 -0.0045585125 0.00481317 0.0010824263 0.0038091277 0.0013105321 -0.014316668 -0.0012804101
0.008376976 0.008327429 0.009532898 0.0017916426 0.0064698043 -0.0056855185 0.000750186 0.009753875
0.004117529 -0.00898842 0.0018780285 -0.0024977261 0.0009887753 0.0024926886 -0.0076155122 0.0065844865
-0.005425726 0.0017351855 -0.0023759038 -0.003527399 0.0072304946 -0.00076726597 -0.011673562 0.0028972295
0.0052068415 0.001310182 -0.0019320166 -0.0011773604 0.003069555 -0.0066097514 -0.004911065 0.0031292334
-0.0017464823 0.0041919085 0.0038517758 -0.0017625693 0.0024428647 -0.0048132683 -0.008061016 -0.0016052924
-0.0010405225 -0.0060240496 -0.0066227117 0.0057247705 0.002528721 0.0025703711 -0.005658796 0.0060461103
-0.0069318186 -0.011877258 -0.011523776 0.0005353545 -0.0065375995 0.0067310813 -0.0034614666 -0.0071298904
0.0007675099 -0.0005112268 -0.0054120263 -0.0061359345 0.0054332134 0.005867439 0.009869285 0.003125304
-0.00065237685 -0.0016783603 0.0060277884 0.0058149733 -0.005132579 -0.0015451772 -0.0004581862 0.010388207
-0.008892587 -0.0023099086 -0.007661979 -0.011955187 0.0049627516 -0.0026873806 0.0025744983 -0.00019183404
-0.0027966464 -0.004892515 0.0022226444 -0.006461362 -0.007697692 -0.0067009544 0.0029443544 -0.0007790765
0.0075016227 0.0038397252 -0.0034356702 0.0019225864 0.003619407 0.006724975 0.007792287 0.0026612475
0.008044228 0.0004716218 0.0043122633 -0.0028367504 -0.002490045 -0.010028114 -0.002404906 0.00032432497
-0.0078094564 0.007928381 0.0005842009 0.0030733207 0.003783263 -0.004104773 -0.009974039 0.004022547
-0.004972208 9.693549e-05 0.01296776 0.0031345908 -0.0029763605 -0.020547228 -0.006366412 0.00863514
0.002015523 0.004877823 -0.0032081062 0.0112473825 -0.0020236827 0.0058474005 0.0058591757 0.009327913
0.010596497 -0.0059069768 -0.0010691887 0.008305059 -0.004661134 0.0057534007 0.0034102513 0.0034184174
-0.00072428765 -0.0056229234 0.0028018088 -0.003953445 -0.0049225125 -0.0088889925 -0.003015241 0.001913387

siren.sine_layers.4.linear.bias f4 [128]
00000000: c5da 13bd 8878 d7bd 72d4 ea3c 00a7 1cbc
00000010: 3a6c ba3c dea6 423d 5b8d 0fbd a416 773d
00000020: ff4b 90bd e152 b53d baa3 b63c 2582 6abb
00000030: 5cee 6cbd 6a6a b5bd 66f4 663d 88b3 8ebc
00000040: 74df 8f3d d2ef 993d 337e 88bd 9f47 823c
00000050: ee94 83bd 06a7 75bd 7db1 a6bd 9cb1 4b3d
00000060: cf4d 11bd a005 12bd d83a a9bd 2c19 a43d
00000070: 3491 89bc de11 db3b fa25 38bc ce93 9b3d
00000080: 4367 8bbd 1672 723c d4e0 2f3d 8b55 b0bd
00000090: a83b d2bd 48fc 9dbd 2109 93bd c3ce bbbd
000000a0: a1cd 26bd 8b16 20bc 9096 aa3c 8aa5 92bd
000000b0: 1e8e 883c 5679 9fbd a069 28bd 618b 943d
000000c0: 59ea 57bd 314c 473d 160f 363c 8d8b 553c
000000d0: 53bc 94bd ba52 0e3b 0cba a5bd 07e6 83bd
000000e0: d4f3 923d 646e b13d 5372 36bd ee75 77bd
000000f0: 3b15 b53d f529 6b3d 5523 2e3d edea 983c
00000100: 7e49 b6bc 0297 b6bd c56b 863d 3909 8d3d
00000110: 7b46 703d 857c 353d 51d3 88bb 159f 8f3c
00000120: 758a 86bd ccb5 26bd 2598 863c 338a 41bc
00000130: abf4 c1bd 37d7 72bd a258 7e3d 6b79 9ebd
00000140: 86f3 cf3c 992a 9abc a8de 723c bdf6 813d
00000150: 26f4 4b3d cb63 70bd 00c7 d7bc f5f7 123d
00000160: 4b0e a7bd 947f 2c3d ae14 7ebd 80eb 8a3d
00000170: b98b 973b a38e afbc 30ed bebb 9db8 af3d
00000180: cc62 fd3c d6b4 3bbd 9d67 27bd 3c81 46bd
00000190: 1c17 76bd 55e7 13bd a5b1 e23c 934c 2abd
000001a0: f28f 533d 42cf 483d c717 20bd 961b 8f3d
000001b0: 5578 66bb 0a9e 663d a20f 663d 7a69 80bd
000001c0: a977 28bd ac49 843d f8e6 323d a45f 89bd
000001d0: 5ca6 adbd 1677 93bd 9a89 713d fdae 763d
000001e0: 6a81 af3d 2ebd a13b cce5 4c3d 7618 f6bc
000001f0: bf4a 3fbd 602c 6ebd 1096 bc3c 9975 653d
-0.036097307 -0.105210364 0.028665755 -0.0095613 0.022756685 0.04752242 -0.035046916 0.060324326
-0.07045745 0.088536985 0.022294868 -0.0035783139 -0.057844505 -0.088581875 0.05638542 -0.017419592
0.07025042 0.07516445 -0.066646956 0.015903292 -0.064248905 -0.05997374 -0.08139322 0.04972993
-0.035474595 -0.035649896 -0.08263177 0.08012614 -0.016792871 0.0066854795 -0.011239523 0.07596551
-0.06806805 0.014797708 0.042939022 -0.08610066 -0.10265285 -0.077141345 -0.071794756 -0.09170296
-0.040723447 -0.009771 0.020823747 -0.0716048 0.01666933 -0.07786815 -0.041116357 0.07253147
-0.052713726 0.048656646 0.011111995 0.01303376 -0.072624825 0.002171679 -0.08092126 -0.064403586
0.07175413 0.086636335 -0.04454262 -0.0604152 0.0884194 0.05741306 0.042514164 0.018666709
-0.02225184 -0.08915521 0.06563524 0.06886525 0.058660965 0.044308204 -0.0041755815 0.01753191
-0.06569377 -0.04070072 0.01642997 -0.011812734 -0.09470495 -0.059287276 0.062096246 -0.077380024
0.025384676 -0.01881914 0.014823593 0.0634589 0.049793385 -0.05868892 -0.026340008 0.035881
-0.08157023 0.042113855 -0.06203144 0.06783199 0.0046248105 -0.02143032 -0.005826615 0.08580134
0.0309309 -0.045826755 -0.040870298 -0.04846309 -0.060080633 -0.036109287 0.027672598 -0.041576933
0.05165095 0.04902578 -0.039085176 0.069876835 -0.0035166938 0.05630306 0.056167252 -0.06270118
-0.04112974 0.06459364 0.0436773 -0.06707695 -0.08478996 -0.07200448 0.058969118 0.060225476
0.08569606 0.004935882 0.05002384 -0.03004096 -0.046702143 -0.058147788 0.023020774 0.056020353
