data/character_models/lambda_01/face_morpher.pt (torch, 491887 bytes, 18 tensors)

siren.sine_layers.0.linear.weight f4 [128, 41, 1, 1]
0.031939965 -0.08602781 0.0059451708 -0.0006576091 0.0011037966 0.0026022228 0.008653952 -0.008701665
0.005081522 0.00085915806 0.00024863626 0.0013382145 -0.007131149 0.00927346 0.0077586416 0.015589828
0.010798402 0.007356975 0.0064932946 -0.004209458 -0.002126713 0.020726416 0.010564164 -0.00371455
0.0058566006 -0.004973461 0.0019077377 -0.00033972278 0.0018500143 -0.0007175036 0.0020599386 -0.00025471812
0.0019700348 0.0012999567 -0.0017647481 0.002163922 0.0019409826 -0.0010045917 -0.00016561289 -0.00080758147
-0.0009735199 -0.028840955 -0.017536605 -0.00091211364 0.0068661226 -0.00052841473 0.002548946 -0.008004967
0.008058952 0.005205603 0.00076895807 -0.0073385355 0.008442077 -0.0010575572 -0.0012253915 0.01518547
-0.0015271067 0.0052243173 -0.0032658915 0.003082513 0.0018964346 0.008054144 -0.0027159613 -0.00023187787
0.0068509337 0.0020321235 -0.0016333599 -0.002974668 0.009106368 0.0050595235 0.004101991 0.006609349
0.005781022 0.0067043426 0.008409918 -0.0056135245 0.007302539 -0.005201512 0.0063727805 0.0047768676
0.0011077883 -0.0028770883 -0.06918834 -0.046626862 -0.00035880317 -0.0039475337 -0.0006382287 -0.0039656856
-0.0063560936 0.00045694987 0.0010025119 -0.00011135437 -0.0052033686 0.0052775713 0.0016794098 -0.004397284
-0.005300717 0.0019879963 -0.005332177 0.0031000832 -0.0023664741 0.0028017394 -0.00024387702 -0.0023466176
-0.0012335114 0.00078630226 0.0028989324 -0.0042726127 -0.0014955775 0.000824296 0.0052937446 -0.00051601167
-8.5808504e-05 0.0039807796 0.004061884 0.0047491253 0.004911797 -0.0062916554 0.0027444442 -0.004430714
-0.00065367133 0.00017639289 -0.00023993886 -0.0038960816 -0.03752789 0.0033296098 -0.0065650092 0.0034929176
-0.007450553 0.003383506 -0.0061226934 -0.005031771 0.004237621 -0.005799847 0.0056893188 -0.0046280837
0.0024317205 -0.0055624107 0.0003852857 -0.0019662012 -0.0061617265 -0.0054336092 -0.0005003829 -0.013582204
0.007861001 0.007477958 -0.0114286635 0.0038997517 -0.008105361 0.004358027 -0.005259609 -0.010771669
-0.010131679 -0.010564826 -0.007877694 -0.0120302215 -0.011570125 0.002557966 -0.007397625 -0.0025481107
0.0024726465 -0.0078018554 0.00029162015 -0.00077987055 -0.021550858 -0.010993971 -0.013076918 0.0032874334
-0.010536247 -0.005565178 -0.00025895415 -0.0071673566 -0.0016699834 -0.0048629562 -0.01609365 0.012905407
-0.003431916 -0.006720784 0.0025788133 0.0012075445 0.0043138345 -0.008115252 -0.010806366 0.0059661027
0.005363862 -0.0020799658 0.0073600826 -0.0045506977 0.008391748 -0.00684673 0.00039883074 0.00079843355
0.0021444622 1.3910915e-05 0.002041516 0.0027171911 0.0037474367 0.0077089034 0.0036967774 -0.006545289
0.00033714715 -0.004634223 -0.001101926 0.0020475315 0.0009500215 0.059353784 -0.046102647 -0.008388435
0.013629953 0.0070994482 -0.004348428 0.0052525 -0.0048321234 -0.0019962506 0.0081606265 0.010480782
-0.008337706 -0.0017913788 0.00051684683 -0.00060983346 -0.0032755153 0.0017602401 -0.004284484 -0.0064023174
0.0062339692 0.00986801 -0.012245741 -0.0026798425 0.002125555 0.0043607727 -0.0016420168 -0.005483746
0.0068497313 0.0020119052 0.0017639927 0.0006861507 0.0018206183 0.001559879 0.00016630968 0.0032460135
-0.0035219893 -1.7995651e-05 0.0010007512 0.0022315818 -0.00037176537 -0.0007798339 0.053177297 -0.09139973
0.002727144 -0.0061508976 -0.0026567162 0.0033415766 0.007154694 -0.008232375 -0.0045723245 8.114356e-05
00000000: 7bd3 023d 592f b0bd b5cf c23b 6663 2cba
00000010: 45ad 903a 0e8a 2a3b 4ec9 0d3c 6e91 0ebc
00000020: e582 a63b 1f39 613a 655b 8239 0767 af3a
00000030: 6aac e9bb b6ef 173c 343c fe3b 7a6c 7f3c
00000040: c8eb 303c c812 f13b b4c5 d43b 7eef 89bb
00000050: 5360 0bbb 72ca a93c 5115 2d3c cf6f 73bb
00000060: bae8 bf3b 6af8 a2bb 0e0d fa3a d21c b2b9
00000070: 2e7c f23a da16 3cba 0900 073b b08b 85b9
00000080: b31b 013b 4f63 aa3a 1f4f e7ba 96d0 0d3b
00000090: 9268 fe3a 81ac 83ba 5fa8 2db9 e0b3 53ba
000000a0: d133 7fba de43 ecbc eda8 8fbc e91a 6fba
000000b0: 36fd e03b 5085 0aba 380c 273b 4427 03bc
000000c0: b209 043c c393 aa3b e793 493a 1978 f0bb
000000d0: a350 0a3c bb9d 8aba 519d a0ba 7acc 783c
000000e0: 3329 c8ba c030 ab3b 9108 56bb fd03 4a3b
000000f0: c991 f83a 87f5 033c 45fe 31bb 3e24 73b9
00000100: cc7d e03b 602d 053b 7716 d6ba a6f2 42bb
00000110: e032 153c 5cca a53b ff69 863b 3d93 d83b
00000120: ba6e bd3b 1ab0 db3b c1c9 093c a8f1 b7bb
00000130: 234a ef3b 7271 aabb c2d2 d03b 4587 9c3b
00000140: 3533 913a 888d 3cbb 9eb2 8dbd cffb 3ebd
00000150: bf1d bcb9 505a 81bb ce4e 27ba 95f2 81bb
00000160: c746 d0bb c692 ef39 b866 833a ec86 e9b8
00000170: 0581 aabb 7aef ac3b a41f dc3a 1717 90bb
00000180: a3b1 adbb 0b49 023b 8bb9 aebb c42a 4b3b
00000190: d916 1bbb 639d 373b 3db9 7fb9 b6c9 19bb
000001a0: c6ad a1ba da1f 4e3a 04fc 3d3b 4601 8cbb
000001b0: 4107 c4ba 9115 583a 2677 ad3b f544 07ba
000001c0: 17f4 b3b8 3371 823b 8d19 853b 8d9e 9b3b
000001d0: 24f3 a03b 3b2a cebb 22dc 333b 862f 91bb
000001e0: 245b 2bba 1bf6 3839 1998 7bb9 6755 7fbb
000001f0: d8b6 19bd 9535 5a3b 4a1f d7bb 6fe9 643b
00000200: c523 f4bb d0bd 5d3b e0a0 c8bb 8ee1 a4bb
00000210: bedb 8a3b a50c bebb 776d ba3b 2ea7 97bb
00000220: 805d 1f3b e244 b6bb 2c00 ca39 62db 00bb
00000230: 4fe8 c9bb 6b0c b2bb 212c 03ba e487 5ebc
00000240: 6ecb 003c a909 f53b 4a3f 3bbc fa92 7f3b
00000250: 59cc 04bc c8cd 8e3b cc58 acbb a87b 30bc
00000260: 57ff 25bc 1818 2dbc 7211 01bc 681a 45bc
00000270: 9f90 3dbc 8ca3 273b c767 f2bb 34fe 26bb
00000280: 200c 223b b5a6 ffbb 98e4 9839 3a70 4cba
00000290: 6d8b b0bc 0e20 34bc 9240 56bc fb71 573b
000002a0: 39a0 2cbc 195c b6bb 3dc4 87b9 25dc eabb
000002b0: 58e3 daba 6f59 9fbb d5d6 83bc 3371 533c
000002c0: ffe9 60bb 063a dcbb 4f01 293b 7846 9e3a
000002d0: 115b 8d3b d5f5 04bc 2f0d 31bc 4c7f c33b
000002e0: 56c3 af3b 0950 08bb d92c f13b 051e 95bb
000002f0: 8b7d 093c 895a e0bb 281a d139 f84d 513a
00000300: 1b8a 0c3b ed62 6937 f4ca 053b e712 323b
00000310: 8e97 753b f89a fc3b a245 723b dd79 d6bb
00000320: 20c3 b039 aeda 97bb 806e 90ba e12f 063b
00000330: dd0a 793a f41c 733d 21d6 3cbd a56f 09bc
00000340: 2b50 5f3c 7da2 e83b 427d 8ebb 2a1d ac3b
00000350: ca56 9ebb 87d3 02bb 26b4 053c 96b7 2b3c
00000360: e09a 08bc b3cc eaba 017d 073a 3bdd 1fba
00000370: 07aa 56bb dbb7 e63a db64 8cbb 88ca d1bb
00000380: 5346 cc3b 6fad 213c 5ca2 48bc 4ca0 2fbb
00000390: e54c 0b3b d0e4 8e3b f138 d7ba ffb0 b3bb
000003a0: b673 e03b 2bda 033b c635 e73a cbde 333a
000003b0: d0a1 ee3a db74 cc3a 6a63 2e39 12bb 543b
000003c0: 2dd1 66bb 5ef5 96b7 a32b 833a bb3f 123b
000003d0: 81e9 c2b9 c46d 4cba 70d0 593d c82f bbbd
000003e0: e2b9 323b 788d c9bb 4d1c 2ebb 5afe 5a3b
000003f0: ec71 ea3b 15e1 06bc 70d3 95bb 9e2b aa38

siren.sine_layers.0.linear.bias f4 [128]
-0.01913996 -0.11714923 -0.06365472 0.027170254 -0.10080653 0.10678856 0.06913331 0.12902306
0.10649175 -0.084589176 0.071580976 0.07531999 0.11828901 -0.00041921332 0.09571394 0.0248008
-0.10454755 0.10575422 -0.0043426184 0.100217536 0.024095682 0.13495606 -0.0943151 -0.08296168
0.0008570807 0.12014459 -0.1357097 0.11133182 -0.12384152 0.110525966 -0.09285433 0.022850217
-0.103216626 -0.0051177456 -0.106007114 0.10389798 -0.095405065 0.0004027021 -0.10759597 0.0034334697
-0.15394656 -0.0342779 -0.08478553 0.020340715 -0.1258459 0.09776619 -0.10207842 0.0058086775
-0.13346533 0.06695751 0.085413925 0.053562913 0.12150567 -0.119618766 -0.10761702 0.0018207175
0.1063353 0.012510039 -0.080091745 0.107630506 0.12847216 -0.14809921 0.09646963 0.08859298
0.07114696 -0.1144312 0.006927101 -0.01112024 0.10664598 -0.070233434 0.0017116447 -0.05711278
-0.06311272 0.062377878 0.12119024 -0.10487312 -0.030659305 -0.06203411 -0.100402005 0.0027369817
0.039818894 -0.12165175 0.12967502 -0.014026042 -0.1386907 0.11106199 0.039618988 0.09359337
0.0076437546 -0.083564594 0.11549675 -0.107554734 0.0050129797 -0.015958829 0.068300724 -0.0023401745
0.0006498911 -0.1329858 0.13789105 -0.12733558 -0.13520324 0.14323972 0.09288589 -0.026394883
0.038229242 0.14624475 0.004475129 -0.0054179654 0.032211162 -0.017001854 0.106111385 0.1324042
-0.092914924 -0.11509138 -0.023044657 0.042474665 -0.03830354 -0.10444311 0.10401203 0.11329665
-0.10960424 -0.12550706 0.09734633 -0.034006666 0.01250431 -0.12996437 -0.104692 -0.11613195
00000000: 68cb 9cbc efeb efbd 685d 82bd 2794 de3c
00000010: a773 cebd f6b3 da3d c495 8d3d 9f1e 043e
00000020: 5918 da3d 173d adbd 0c99 923d 5e41 9a3d
00000030: 8241 f23d dcc9 dbb9 ac05 c43d 0c2b cb3c
00000040: 071d d6bd ab95 d83d 864c 8ebb da3e cd3d
00000050: 4f64 c53c ec31 0a3e 4628 c1bd d0e7 a9bd
00000060: b6ad 603a 5e0e f63d 7cf7 0abe f001 e43d
00000070: 9fa0 fdbd 705b e23d 692a bebd 6130 bb3c
00000080: 3d63 d3bd c3b2 a7bb 421a d9bd 77c8 d43d
00000090: bb63 c3bd c321 d339 475b dcbd 1004 613b
000000a0: 2ba4 1dbe fc66 0cbd 09a4 adbd 92a1 a63c
000000b0: bfdd 00be a439 c83d 7e0e d1bd b856 be3b
000000c0: 23ab 08be 0521 893d 7fed ae3d c964 5b3d
000000d0: f7d7 f83d affa f4bd 5066 dcbd 24a5 ee3a
000000e0: 52c6 d93d e8f6 4c3c 2407 a4bd 626d dc3d
000000f0: 358e 033e 52a7 17be df91 c53d 3c70 b53d
00000100: 7fb5 913d e85a eabd bcfc e23b ab31 36bc
00000110: 3569 da3d 8cd6 8fbd 4459 e03a 17ef 69bd
00000120: 3e41 81bd f27f 7f3d 9732 f83d b8c7 d6bd
00000130: 3929 fbbc 7b17 7ebd 919f cdbd ef5e 333b
00000140: 2319 233d 8d24 f9bd 87c9 043e 7ccd 65bc
00000150: ef04 0ebe 7874 e33d 8547 223d e1ad bf3d
00000160: 7678 fa3b ea23 abbd 8f89 ec3d a845 dcbd
00000170: ec43 a43b 17bc 82bc 40e1 8b3d 9d5d 19bb
00000180: 745d 2a3a 6e2d 08be 5033 0d3e 4264 02be
00000190: b872 0abe 6fad 123e f53a be3d 153a d8bc
000001a0: 4496 1c3d 2fc1 153e 1aa4 923b 3089 b1bb
000001b0: daef 033d 7947 8bbc ed50 d93d f794 073e
000001c0: 2e4a bebd 08b5 ebbd 26c8 bcbc eaf9 2d3d
000001d0: 2ce4 1cbd 45e6 d5bd 4204 d53d 1308 e83d
000001e0: 3078 e0bd ec84 00be 835d c73d 934a 0bbd
000001f0: e1de 4c3c 6115 05be c268 d6bd 96d6 edbd

siren.sine_layers.1.linear.weight f4 [128, 128, 1, 1]
0.0019524903 0.0020605354 -0.00855694 -0.0054014134 0.002720749 0.0005377191 -0.0044749686 0.0018620071
0.00082909234 -0.007376802 0.0051471936 0.015470597 0.0045807613 -0.0063952156 -0.003491117 0.0019220124
0.005430846 0.00049315434 -0.0072329524 -0.0021545927 -0.00097138324 -0.012712758 -5.1940624e-05 -0.000106284046
-0.004918507 0.0013300854 0.001866953 -0.0011408842 0.0021547158 -0.0016552821 -0.0014997424 -0.008249499
-0.0004331378 0.0032200876 0.00055217784 -0.0012945886 -0.0012969292 -0.0045473636 -0.002032816 0.0001930521
0.00018004909 0.0008590789 -0.0047512827 -0.0007336861 -0.0067079663 -0.0019156982 0.0028491325 -0.00085885305
0.0010185322 -0.0038568096 0.0004091943 0.012987629 0.004380747 -0.0031577635 0.0018257786 0.0025968968
0.0010061113 -0.000734824 0.009256541 -0.0025888854 -0.0016376238 -0.0025799202 0.0011920555 0.000736153
0.006323037 0.0040649422 0.003450088 0.009401773 0.0073671364 -0.01950315 0.003454042 -0.0014514925
-0.0029665977 0.0057759807 0.0012974105 0.003162865 0.0005440914 0.008986549 0.00012946743 -0.0012702431
0.008781071 0.008228312 0.006926511 0.0031958313 -0.006557363 0.00063671556 0.004420566 0.0013991123
0.003595944 0.002360461 -0.005354207 -0.0016981206 0.0020813444 -0.0011270477 0.0026882316 -0.004054763
0.0053031626 0.0044530113 -0.008969483 -2.2856739e-05 -0.006875481 0.0013023708 -0.0036963932 0.005918847
0.0030876738 -0.004979019 -0.0008713105 0.0007999142 -0.00597294 -0.00091536465 0.0010863213 -0.0038736248
0.0068019833 0.0021048666 -0.018450662 0.0013010679 0.0025269217 0.005642277 0.0039295633 -0.0061747744
0.00013817588 0.0029152127 -0.0064380793 0.0015312895 -0.006625937 -0.0030578927 0.0043435595 0.005857877
7.529436e-05 0.0031227465 -0.008182359 -0.0046353512 0.0028902264 0.0034915712 0.002608264 0.0006142232
0.002847494 -0.003757086 0.002472616 -0.0016672347 0.0022478069 0.004797574 -0.0015659314 0.0020719392
-0.005519646 0.0044476744 9.857167e-06 -0.0003120079 0.0077750324 -0.0006824011 0.0005071456 -0.0019795874
0.0051644337 0.0052699824 -0.005929419 0.0009318854 -0.0043326598 -0.0019212611 -0.0028230196 -0.0071873255
0.0019688676 -0.00017186365 0.0049709673 0.0016394668 -0.001096001 -0.001903259 -0.0056359 0.003940614
-0.0017968314 -0.0051212967 -0.0055197747 -0.0033208916 -0.00034434348 -0.004250329 0.00571686 -0.002843775
0.0051438697 0.0005401705 0.0014745751 0.002205207 -0.0028418647 -0.0019442308 -0.0026790951 -0.0041087265
-0.00083570485 0.0029583555 -0.005169967 -0.0038172177 -0.010178837 -0.008198931 -0.007198916 0.004261734
-0.0060797497 -0.00060215226 -0.008503205 -0.0014765894 -0.0021880725 -0.005048567 0.002944049 0.00185763
0.00787599 0.0019983305 0.0005358542 -0.00088434597 0.0014201802 -0.0021881664 -0.004501551 -0.0034360006
-0.008539045 0.004706881 0.004969288 0.0016177084 0.00048662908 -0.0040955837 -0.0031596161 0.0012557855
-0.0050140023 -0.005474982 0.0053915153 -0.0003377267 -0.0024623862 0.0031130323 -0.0046111634 0.002618349
0.0013553674 0.0052077426 -0.004399113 0.0013362877 -0.00093545846 7.9506244e-05 -0.003729906 -0.00046049786
-0.0038515474 -0.009209547 -0.00020108481 0.00018750006 -0.00048336262 -0.0034166481 0.0023902839 -0.0055173095
0.0025000547 0.0063513345 0.0028041152 -0.00027382307 -0.0015023426 -0.0021213326 4.04757e-05 0.0032273866
-0.00056388736 -0.0009217696 0.007596791 -0.008571736 -0.005698124 -0.0017909448 -0.0044417083 0.0055645136
00000000: b4ea ff3a 0c0a 073b 6832 0cbc 57fe b0bb
00000010: 984e 323b b8f5 0c3a c2a2 92bb 970e f43a
00000020: 7257 593a 1ab9 f1bb caa9 a83b 6378 7d3c
00000030: 361a 963b f58e d1bb 39cb 64bb 09ec fb3a
00000040: 3df5 b13b 0747 013a 6702 edbb 1134 0dbb
00000050: 6da4 7eba 2c49 50bc d2da 59b8 d0e4 deb8
00000060: 6d2b a1bb 4356 ae3a 8cb4 f43a b989 95ba
00000070: 2236 0d3b 0df6 d8ba 0193 c4ba e828 07bc
00000080: c516 e3b9 1b08 533b 07c0 103a 2faf a9ba
00000090: b9fd a9ba 0d02 95bb fe38 05bb 076e 4a39
000000a0: 8fcb 3c39 cf33 613a a6b0 9bbb d754 40ba
000000b0: 80ce dbbb 2a18 fbba 83b8 3a3b a724 61ba
000000c0: 4580 853a 87c2 7cbb 2189 d639 10ca 543c
000000d0: 5f8c 8f3b 7bf2 4ebb f74e ef3a b330 2a3b
000000e0: 7edf 833a 34a1 40ba bfa8 173c 4aaa 29bb
000000f0: 89a5 d6ba e113 29bb bf3e 9c3a 64fa 403a
00000100: 7b31 cf3b 3533 853b df1a 623b e509 1a3c
00000110: 0568 f13b 12c5 9fbc 355d 623b 0240 beba
00000120: 406b 42bb 7044 bd3b df0d aa3a 1248 4f3b
00000130: 5ba1 0e3a 523c 133c a6c1 0739 497e a6ba
00000140: 7bde 0f3c 0bd0 063c c9f7 e23b 2771 513b
00000150: 26df d6bb 42e9 263a 65da 903b 6b62 b73a
00000160: eea9 6b3b f7b1 1a3b 5872 afbb 7993 deba
00000170: 2a67 083b 72b9 93ba 0b2d 303b d1dd 84bb
00000180: 27c6 ad3b 91ea 913b bdf4 12bc 79bc bfb7
00000190: b74b e1bb 50b4 aa3a 303f 72bb e3f2 c13b
000001a0: 925a 4a3b 0a27 a3bb a868 64ba 55b1 513a
000001b0: a7b8 c3bb 15f5 6fba e562 8e3a a4dc 7dbb
000001c0: 2ce3 de3b cdf1 093b d825 97bc 9888 aa3a
000001d0: b69a 253b dae2 b83b 91c3 803b c355 cabb
000001e0: 4ee3 1039 270d 3f3b 86f6 d2bb 8db5 c83a
000001f0: 631e d9bb ed66 48bb 6b54 8e3b 6ff3 bf3b
00000200: 5ae7 9d38 fea6 4c3b 4d0f 06bc 25e4 97bb
00000210: f469 3d3b d8d2 643b 69ef 2a3b d203 213a
00000220: 069d 3a3b 7139 76bb 9d0b 223b 1d87 daba
00000230: f14f 133b f834 9d3b f03f cdba 5fc9 073b
00000240: 26de b4bb ccbd 913b 3660 2537 fe94 a3b9
00000250: b3c5 fe3b 2ae3 32ba f7f1 043a f7bb 01bb
00000260: 693a a93b d1af ac3b 924b c2bb c549 743a
00000270: fcf8 8dbb d3d2 fbba 6902 39bb a883 ebbb
00000280: 1e08 013b 4c36 34b9 7fe3 a23b 61e3 d63a
00000290: b1a7 8fba c676 f9ba 5bad b8bb 4420 813b
000002a0: a883 ebba 8dd0 a7bb 3adf b4bb 51a3 59bb
000002b0: 0089 b4b9 5846 8bbb 7f54 bb3b a15e 3abb
000002c0: e88d a83b 3b9a 0d3a 8846 c13a 3c85 103b
000002d0: 943e 3abb 8fd5 feba c293 2fbb 7fa2 86bb
000002e0: 3413 5bba f8e0 413b d468 a9bb 492a 7abb
000002f0: 23c5 26bc cf54 06bc e2e4 ebbb 04a6 8b3b
00000300: a338 c7bb c1d9 1dba 0751 0bbc 1e8a c1ba
00000310: c465 0fbb 736e a5bb f2f0 403b b87b f33a
00000320: 4c0a 013c 6cf6 023b 9178 0c3a 74d3 67ba
00000330: 5725 ba3a 5767 0fbb bf81 93bb 862e 61bb
00000340: 5ae7 0bbc 2e3c 9a3b 69d5 a23b 4909 d43a
00000350: 4022 ff39 3f34 86bb 9011 4fbb 2b99 a43a
00000360: 804c a4bb 7a67 b3bb 4fab b03b e910 b1b9
00000370: fc5f 21bb 0404 4c3b 3e19 97bb 9b98 2b3b
00000380: 95a6 b13a b6a5 aa3b 6f26 90bb 6026 af3a
00000390: 8e39 75ba 97bc a638 7071 74bb fa6e f1b9
000003a0: 3e6a 7cbb a4e3 16bc 4bda 52b9 aa9b 4439
000003b0: d56b fdb9 d8e9 5fbb 4fa6 1c3b 8cca b4bb
000003c0: f5d7 233b db1e d03b 3fc5 373b e98f 8fb9
000003d0: 41ea c4ba 0e06 0bbb 74c4 2938 9082 533b
000003e0: d7d1 13ba e9a2 71ba 80ee f83b 7770 0cbc
000003f0: 54b7 babb 23be eaba c08b 91bb 8656 b63b

siren.sine_layers.1.linear.bias f4 [128]
-0.016785802 0.04493199 -0.09031579 -0.045037568 -0.050339673 -0.04114938 -0.052462913 -0.05517663
0.053045202 -0.07168589 -0.0509995 0.007644575 -0.028825793 0.046249684 0.08130092 0.045210097
-0.080077335 0.05341897 0.00067765504 0.07432028 0.059736717 -0.038594007 -0.04792181 -0.0034998318
-0.023731666 0.048972152 0.025778377 -0.056333806 -0.06620644 0.08414879 -0.011926383 -0.029292451
0.07150873 -0.08591413 -0.0056101545 0.046832617 -0.015782462 0.08537851 -0.04253435 0.0008845404
0.04889531 -0.03501614 -0.0022955441 0.009315523 -0.03210156 -0.058155466 -0.026345402 0.0009213895
-0.041190043 0.025237769 0.030758869 0.047033433 -0.04157949 -0.019160729 0.006661081 -0.08596022
-0.065863885 -0.033665273 0.0023711182 0.06674856 0.0722377 -0.048723795 -0.0020704882 0.052457906
-0.03205331 -0.0039033936 -0.04638223 0.05037758 0.013277515 0.091787994 0.016953789 -0.016587762
-0.013706153 -0.002348464 0.07344469 0.014436436 0.039352547 0.043226093 0.03596692 -0.06351589
-0.0121391 0.055726867 -0.006948505 -0.012132026 0.033634894 0.032496657 0.051225636 0.051751208
-0.03842921 -0.08016901 -0.06500512 -0.07302353 -0.07834715 -0.07135975 0.016786322 0.05626994
-0.06590378 -0.07941059 0.0029720087 0.066599175 0.08537362 -0.060006965 -0.034278147 0.030066507
-0.06739274 -0.08272496 -0.051865447 -0.07312756 -0.044567622 0.057720367 -0.05140989 -0.07863306
0.0804 0.058511473 0.020339066 -0.014729549 0.07164639 -0.08409969 -0.04001767 0.020750633
-0.04196914 0.0631229 -0.029528823 -0.03650024 -0.05212362 -0.05830783 0.06920561 -0.0043008025
00000000: 6182 89bc 9b0a 383d 7cf7 b8bd 5079 38bd
00000010: f930 4ebd 418c 28bd 5ae3 56bd e400 62bd
00000020: ed45 593d 0dd0 92bd dae4 50bd 587f fa3b
00000030: 1224 ecbc 4f70 3d3d 1981 a63d 392e 393d
00000040: 96ff a3bd dacd 5a3d a9a4 313a 3b35 983d
00000050: 7dae 743d c014 1ebd a949 44bd 6f5d 65bb
00000060: e968 c2bc 0697 483d 2d2d d33c 47be 66bd
00000070: 3e97 87bd 3356 ac3d e066 43bc b9f6 efbc
00000080: 2b73 923d bff3 afbd 63d5 b7bb 8fd3 3f3d
00000090: 394a 81bc eeda ae3d 8038 2ebd 80e0 673a
000000a0: 7346 483d 166d 0fbd d770 16bb 23a0 183c
000000b0: ed7c 03bd 6d34 6ebd 50d2 d7bc 6789 713a
000000c0: e4b6 28bd 70bf ce3c 06fa fb3c 21a6 403d
000000d0: 414f 2abd f6f6 9cbc 3345 da3b e90b b0bd
000000e0: a5e3 86bd 99e4 09bd c364 1b3b 78b3 883d
000000f0: 5cf1 933d 9a92 47bd 07b1 07bb 1ade 563d
00000100: 554a 03bd 14d0 7fbb 4bfb 3dbd b958 4e3d
00000110: ef89 593c 58fb bb3d ace2 8a3c 0fe3 87bc
00000120: c68f 60bc b0e8 19bb 2b6a 963d cd86 6c3c
00000130: 2330 213d d80d 313d 0d52 133d 9e14 82bd
00000140: 13e3 46bc db41 643d 49b0 e3bb 68c5 46bc
00000150: bec4 093d 371b 053d f9d1 513d 13f9 533d
00000160: f367 1dbd a62f a4bd 6821 85bd 5c8d 95bd
00000170: 7874 a0bd 1025 92bd 7883 893c 4f7b 663d
00000180: 90f8 86bd 05a2 a2bd 08c6 423b 2665 883d
00000190: 5dd8 ae3d ddc9 75bd 3e67 0cbd 094e f63c
000001a0: 3405 8abd b46b a9bd dd70 54bd e7c3 95bd
000001b0: 8a8c 36bd 316c 6c3d 2d93 52bd 5f0a a1bd
000001c0: c1a8 a43d baa9 6f3d 1d9e a63c 3554 71bc
000001d0: 58bb 923d 753c acbd 91e9 23bd 3bfd a93c
000001e0: d5e7 2bbd 9446 813d 6ee6 f1bc 4781 15bd
000001f0: 947f 55bd 31d4 6ebd acbb 8d3d bfed 8cbb

siren.sine_layers.2.linear.weight f4 [128, 128, 1, 1]
0.0044821585 0.007491213 0.0011106118 -0.002063495 -0.0022797396 -3.6423313e-05 0.011086479 4.4637763e-05
0.0026812055 -0.0015969649 0.000348757 0.009371684 -0.005730457 -0.00053849904 -0.0015155043 -0.013088569
0.0015363039 -0.0024230496 0.00014207762 0.00052625075 -0.0018089133 0.0022333313 -0.009732297 0.0008979484
0.00290761 0.009330908 0.006930489 5.4681175e-05 -0.0046569956 0.0050197532 -0.0007403289 -0.0035765949
0.00047645427 -0.003956484 -0.0015542156 -0.0051315348 0.0018528482 0.0014177074 0.0052629844 -0.006055252
0.00072665606 -0.011462454 -0.004259646 -0.00020150079 -0.0016210235 -0.018652575 -0.002693055 -0.0038426912
-0.0014318143 0.0005538033 0.0044717123 -0.002136853 -0.0013401225 -0.0021235526 -0.0065358644 0.0037275334
-0.0009350633 -0.003501133 -0.004615807 0.009073401 -0.004513027 -0.0048143156 -0.0009415227 0.006562505
0.0022656221 -0.0006624065 0.0054670484 -0.0063602645 -0.009720854 -0.012771399 0.0064934148 -0.0071702544
-0.00065248046 0.0036250197 0.0052908147 -0.0026488763 0.00012693867 0.002482501 -0.00047941715 -0.009898049
0.008558282 0.0008277571 -0.007787968 0.005360049 -0.0015998892 0.0009433318 0.0012058374 -0.00026426784
-0.00037702918 -0.0010459449 -0.006023494 0.0008713897 -0.0065736417 -0.0035328 0.0016191036 -0.007837769
0.005569251 -0.0006272417 -0.0040570237 -0.005580092 0.0029554805 0.001523201 -0.0006372547 -0.0071190787
0.0004606408 0.0023174246 -0.0048655383 -0.00788969 -0.0017074391 0.00179835 0.00060980686 0.0015422652
-0.013317504 0.001379008 0.0063961046 -0.012579236 0.00473549 0.0025555552 -0.0046329685 -0.0013305052
-0.011157571 -0.009419072 0.002934514 0.0056451433 -0.00806159 0.006819696 0.0013318848 0.004285542
0.0055405586 0.006124809 0.0017006674 0.00064849836 0.009551835 -0.0070824185 0.01680835 0.00022553823
0.00699651 0.0033674247 0.004029194 0.004762376 0.0034264824 -0.0075844363 0.0051112226 0.0038145236
-0.0012625996 0.003869818 -0.00011223274 -0.0024093844 -0.010783685 0.0016467 0.0030344808 -0.0034160425
-0.005932281 3.3965065e-05 0.0016756655 0.010870725 0.00049431674 0.003841707 0.0032855256 -0.00078802183
-0.0054523405 -0.0005384251 0.0100173205 -0.0033924815 0.0014882275 0.0033046328 0.0016269758 -0.0041891164
0.005758198 0.0007112442 0.00041804143 0.0038127368 0.0031476784 -0.0050688446 -0.003460888 -0.0043743663
-0.001351524 0.012722065 -0.0032130196 -0.0027433636 -0.0018044215 0.0035654567 -0.00665261 -0.002333377
0.003916392 -0.0015304975 -0.00040807354 0.0051681385 -0.0044048503 0.0036840702 -0.0011908059 -0.0051543154
-0.0059533417 -0.00534719 -0.00061774655 -0.0018126661 0.0045576203 0.00432668 0.0006972073 -0.0018214221
-0.010078361 0.0021738128 0.015706846 -0.003620047 -0.0067194835 0.012476131 0.0135411015 -0.0021783803
0.005753877 0.0026754022 -0.0066517657 0.000113588416 -0.006980209 -0.0049770414 0.00043727265 0.0023815345
-0.005358448 0.002582704 -0.0059839953 0.00085893983 -0.009135052 -0.00015161461 -0.0047492827 0.0058825524
-0.004212665 0.002824833 0.0053774323 -0.0007672731 -0.007645921 -0.0013668331 0.003514037 -0.015011894
-0.018843839 0.0019194757 0.0040089637 0.00087584247 -0.0029939485 0.0023471382 -0.0026365656 0.00055459316
-0.0008327179 0.0071568782 -0.007434579 -0.0076632705 0.0025085039 0.0010908503 -0.0031244077 -0.000751069
-0.006701452 -0.0006702818 -0.0011278039 0.001576949 -0.007855007 0.0007460317 -0.0031335764 0.0019273607
00000000: 12df 923b d978 f53b f391 913a b43b 07bb
00000010: af67 15bb 3cc5 18b8 10a4 353c 6f39 3b38
00000020: 2ab7 2f3b 4051 d1ba 5fd9 b639 b18b 193c
00000030: 8fc6 bbbb 0f2a 0dba e3a3 c6ba 7071 56bc
00000040: ce5d c93a 07cc 1ebb acfa 1439 17f4 093a
00000050: 0f19 edba 155d 123b 3674 1fbc 4c64 6b3a
00000060: 9a8d 3e3b aae0 183c 2819 e33b 7759 6538
00000070: b699 98bb be7c a43b a212 42ba 4e65 6abb
00000080: 9ccc f939 65a5 81bb d2b6 cbba 6f26 a8bb
00000090: 45db f23a 5ed2 b93a 1d75 ac3b 236b c6bb
000000a0: 107d 3e3a 04cd 3bbc 8094 8bbb f549 53b9
000000b0: 8678 d4ba 49cd 98bc f77d 30bb a9d5 7bbb
000000c0: b7ab bbba 1c2d 113a 7187 923b 720a 0cbb
000000d0: 0da7 afba 4d2b 0bbb ce2a d6bb a249 743b
000000e0: 091f 75ba 4473 65bb 3240 97bb 9aa8 143c
000000f0: 04e2 93bb 68c1 9dbb 85d0 76ba 480a d73b
00000100: d57a 143b 59a5 2dba ed24 b33b c469 d0bb
00000110: 3844 1fbc 213f 51bc b6c6 d43b 74f4 eabb
00000120: 390b 2bba bd91 6d3b 925e ad3b c598 2dbb
00000130: d71a 0539 75b1 223b 485a fbb9 6d2b 22bc
00000140: 0938 0c3c d7fd 583a 3632 ffbb 5aa3 af3b
00000150: 60b3 d1ba ed49 773a 300d 9e3a 6e8d 8ab9
00000160: 00ac c5b9 1618 89ba bb60 c5bb f96d 643a
00000170: b467 d7bb 8c86 67bb 1a38 d43a fc69 00bc
00000180: 437e b63b 7a6d 24ba c8f0 84bb 34d9 b6bb
00000190: bcb0 413b 25a6 c73a 700d 27ba 2947 e9bb
000001a0: 2982 f139 efdf 173b 186f 9fbb c243 01bc
000001b0: 26cc dfba 9db6 eb3a 72db 1f3a d525 ca3a
000001c0: a931 5abc d5bf b43a 6a96 d13b 2419 4ebc
000001d0: 2b2c 9b3b 1a7b 273b 28d0 97bb 5964 aeba
000001e0: 3fce 36bc 7452 1abc fa50 403b e5fa b83b
000001f0: c214 04bc c277 df3b a392 ae3a bb6d 8c3b
00000200: 938d b53b 9fb2 c83b eee8 de3a fdff 293a
00000210: 4d7f 1c3c a213 e8bb aab1 893c 757e 6c39
00000220: fb42 e53b 03b0 5c3b 5407 843b b50d 9c3b
00000230: d68e 603b dd86 f8bb 0b7c a73b 16fd 793b
00000240: d07d a5ba c69c 7d3b 7e5e ebb8 c3e6 1dbb
00000250: 0eae 30bc 15d6 d73a 24de 463b afdf 5fbb
00000260: 9463 c2bb b675 0e38 01a2 db3a 201b 323c
00000270: 0995 013a 26c5 7b3b f951 573b 4093 4eba
00000280: 8ca9 b2bb 1925 0dba b01f 243c 6554 5ebb
00000290: a110 c33a 8a92 583b 4040 d53a db44 89bb
000002a0: 44af bc3b ca72 3a3a 922c db39 1cdf 793b
000002b0: 4849 4e3b 8d18 a6bb 11d0 62bb d856 8fbb
000002c0: 9f25 b1ba 3570 503c 8691 52bb 01ca 33bb
000002d0: 5782 ecba 70aa 693b 23fe d9bb 92eb 18bb
000002e0: 1455 803b f99a c8ba b4f2 d5b9 7d59 a93b
000002f0: 9056 90bb 7170 713b d114 9cba 88e5 a8bb
00000300: 4014 c3bb 7b37 afbb 45f0 21ba fb96 edba
00000310: 1758 953b d3c6 8d3b cac4 363a c9bc eeba
00000320: b61f 25bc 8776 0e3b a5ab 803c 4f3e 6dbb
00000330: 1d2f dcbb b068 4c3c 7fdb 5d3c 28c3 0ebb
00000340: 058b bc3b cd55 2f3b 0ef7 d9bb 5136 ee38
00000350: 3dba e4bb 7316 a3bb be41 e539 8513 1c3b
00000360: eb95 afbb 9542 293b 6415 c4bb 7a2a 613a
00000370: 2fab 15bc bdfa 1eb9 df9f 9bbb 6dc2 c03b
00000380: 650a 8abb d520 393b 2c35 b03b d322 49ba
00000390: a28a fabb 4f27 b3ba c24b 663b 72f4 75bc
000003a0: 655e 9abc eb96 fb3a a05d 833b cb98 653a
000003b0: 1f36 44bb 72d2 193b 3bca 2cbb 1e62 113a
000003c0: c14a 5aba 3f84 ea3b c59d f3bb 2c1c fbbb
000003d0: b665 243b ddfa 8e3a ddc2 4cbb 63e3 44ba
000003e0: db97 dbbb dab5 2fba d2d2 93ba a1b1 ce3a
000003f0: 4ab2 00bc 5791 433a b05c 4dbb 7e9f fc3a

siren.sine_layers.2.linear.bias f4 [128]
0.055371433 -0.03327762 0.017622009 0.00224956 0.08620129 0.07890941 -0.053776793 -0.044936128
0.022963654 0.08466411 0.05701757 -0.057441425 -0.045462966 -0.017766014 -0.066610344 -0.014766056
0.086421736 0.0390703 0.03207576 0.03008256 -0.06134243 0.0870501 0.03753671 -0.01794456
0.07746344 -0.03428639 -0.059347402 -0.022895657 0.03297395 -0.05082407 0.07210361 0.07638242
0.039162565 -0.09589388 0.05992222 0.0020035864 -0.04357913 -0.062710986 -0.017575607 0.056719508
0.077403605 0.014031108 -0.0139234625 0.076846346 -0.06977106 0.058562428 0.00045516522 -0.055149563
-0.07595403 -0.088699386 -0.02729547 0.056103267 -0.08254589 0.0023284217 -0.019731082 0.07904946
-0.06326013 -0.041371454 -0.060364757 -0.056116622 0.046531502 0.06608641 -0.05747304 -0.014249199
0.068155885 0.037315153 0.060120795 0.009652157 0.0075090094 0.06675217 0.04697113 -0.04186233
0.06791675 0.051391896 -0.07768013 0.083121456 -0.0894891 -0.015089041 -0.0335938 0.03179156
-0.00028388813 0.040016517 0.018888887 -0.0017970289 -0.060586277 -0.0010131564 -0.0819643 -0.08363942
-0.048561815 0.04098039 0.046825014 0.053498358 -0.049910836 0.04586747 0.07630875 -0.066007294
-0.0042782295 0.01054401 0.06935182 -0.020183709 -0.03831633 0.018248612 -0.021803673 -0.09219066
-0.05210731 -0.061854567 0.017739765 0.06752199 0.0026079142 -0.06346738 -0.047110688 -0.02655179
-0.010405117 -0.08276692 -0.0020217984 -0.030092973 -0.041209914 -0.04411163 -0.063782424 -0.009651223
0.056186855 0.06928649 0.05596672 0.024461754 -0.034463216 0.08167007 0.09936761 0.023286223
00000000: 28cd 623d 1d4e 08bd 085c 903c 5b6d 133b
00000010: 4d8a b03d 429b a13d 0e45 5cbd f20e 38bd
00000020: 461e bc3c 6064 ad3d 418b 693d b347 6bbd
00000030: 6037 3abd 088a 91bc 016b 88bd 54ed 71bc
00000040: e1fd b03d 2e08 203d df61 033d b36f f63c
00000050: 3342 7bbd 5347 b23d 18c0 193d 7800 93bc
00000060: 27a5 9e3d e36f 0cbd 4316 73bd ac8f bbbc
00000070: b10f 073d e62c 50bd 0fab 933d 636e 9c3d
00000080: ed68 203d 0364 c4bd 0071 753d 9a4e 033b
00000090: 0880 32bd 9e6e 80bd b8fa 8fbc b752 683d
000000a0: c885 9e3d bbe2 653c 3c1f 64bc 9e61 9d3d
000000b0: 21e4 8ebd 28df 6f3d 3ea3 ee39 82e4 61bd
000000c0: c98d 9bbd 06a8 b5bd c09a dfbc 8acc 653d
000000d0: d20d a9bd 6f98 183b 14a3 a1bc afe4 a13d
000000e0: 878e 81bd 1d75 29bd 0941 77bd 8bda 65bd
000000f0: d197 3e3d 5058 873d da68 6bbd 7975 69bc
00000100: 5095 8b3d c6d7 183d 3941 763d 1524 1e3c
00000110: 230e f63b 5db5 883d cd64 403d d677 2bbd
00000120: f017 8b3d 4f80 523d c316 9fbd 953b aa3d
00000130: 1046 b7bd 0638 77bc a799 09bd de37 023d
00000140: d2d6 94b9 5ce8 233d debc 9a3c 498a ebba
00000150: 5129 78bd e3cb 84ba e6dc a7bd 254b abbd
00000160: c1e8 46bd 0edb 273d 96cb 3f3d 1821 5b3d
00000170: 4e6f 4cbd 87df 3b3d c347 9c3d d52e 87bd
00000180: 6430 8cbb c9c0 2c3c 5408 8e3d 4e58 a5bc
00000190: 96f1 1cbd 1d7e 953c 9e9d b2bc 75ce bcbd
000001a0: 7a6e 55bd 375b 7dbd fc52 913c f848 8a3d
000001b0: 8ae9 2a3b 30fb 81bd 23f7 40bd 2483 d9bc
000001c0: 397a 2abc b481 a9bd 2680 04bb 8a85 f6bc
000001d0: bacb 28bd 66ae 34bd 5ca0 82bd 2a20 1ebc
000001e0: 3024 663d 13e6 8d3d 5c3d 653d 0464 c83c
000001f0: 4d29 0dbd a342 a73d 3f81 cb3d c0c2 be3c

siren.sine_layers.3.linear.weight f4 [128, 128, 1, 1]
0.005563965 0.00035135148 0.0047977827 0.0030536852 0.0057571535 -0.00046455074 0.0020152344 -0.0020524818
-0.005812829 -0.01296631 0.0028080277 0.0011909375 0.003177773 -0.0016571925 -0.00079760444 -0.0017231342
0.009524886 0.006559687 -0.0036995164 -0.008723943 -0.0028936476 -0.006109636 -0.0110721085 0.00062527583
0.00887555 -0.000803885 -0.0026614126 0.00472644 -0.011207292 0.008381178 -0.00021449167 0.0016350654
-0.0006473209 -0.001592519 0.000105640094 -0.0043400833 0.00866749 -0.00081782107 -0.00028966155 0.012105571
-0.0001597107 -0.0026526013 -0.01157946 -0.0028365362 0.00039007378 -0.006901951 -0.008596052 -0.0013793112
-8.052025e-05 -0.012612095 -0.0036996896 -0.015161251 0.009710485 0.0075393394 0.0029384238 -0.0033571844
-0.0032748706 0.008429331 0.00044552406 0.00056843174 0.0045221034 0.0019244618 0.0054249195 -0.0002628689
0.006300123 -0.004891975 -0.0081318095 0.0053103985 -0.0022071293 8.2138606e-05 0.005551457 0.009036949
-0.0062633846 -0.004979662 -0.00401342 0.0036578448 0.0029439474 0.004186301 0.00060054014 -0.0031047966
-0.00531685 0.015734758 0.0027807248 -0.00046406925 0.00082640856 -0.0034442553 0.002627601 0.0017044124
-0.004630922 0.006294288 -0.0069031822 -0.00046618516 -0.0028509463 0.0015913689 -0.0004560666 0.0001865875
0.009682598 0.0042528566 0.007050337 0.004126834 0.0075658956 0.0011013414 0.0005453746 0.0054090708
-0.010360442 -0.0060190777 -0.008857629 -6.690572e-05 0.009502237 0.01294534 0.010130827 0.0019767364
-0.0021312803 0.0021344596 -0.0007660711 -0.0064956015 -0.0004659642 0.001955429 -0.0048112837 -0.0017270749
-0.006300827 -0.0002915124 0.0032995427 -0.00023197428 -0.0037941842 -0.005560093 -0.0014381355 0.0063975486
0.005070285 -0.01695405 0.0047114063 -0.0060409545 0.013040998 0.002329743 -0.00037874863 0.005514406
-0.0072159683 -0.0066758683 0.005174877 -1.766663e-05 0.0059115747 0.010440766 -0.0060082693 0.007313109
0.007666575 0.0012198859 -0.002791026 0.008510872 -0.0011471502 0.0024335824 -0.01545905 -0.00079464144
0.0067260684 -0.000804872 0.0071151787 0.001825839 -0.0057097753 -0.013881217 0.002895999 0.0037046738
0.000854633 0.000723492 -0.0015278789 0.00094287284 -0.009136608 -0.0048274444 0.0024904725 0.011728189
-0.005383877 -0.010436345 0.0047844825 -0.0074493363 -0.0069261985 -0.0005751551 0.0009454473 -0.00078678987
-0.0033006906 0.0036540942 0.0053829025 -0.002771491 0.0073249023 0.0030027314 0.0004828339 -0.00081106
0.00062613527 -0.0025234837 0.0041175676 -0.00076331384 -0.0072232154 0.0027508992 -0.0017878044 0.0085475305
-0.0058468655 0.0046069464 -0.016153162 -0.003960975 -0.004584645 0.003448148 -4.7742647e-05 -0.0017982814
0.011131147 -0.005287888 -0.0031128454 0.0019714849 -0.0041520526 -1.7993281e-05 0.0034540223 0.011797146
0.0017765914 0.002311239 0.0049100234 0.00820133 0.0055719838 0.008391799 -0.0070131575 -0.006314097
-0.002632287 -0.0053300676 -0.0021808022 8.804428e-05 -0.009549871 -0.012579954 -0.0010264172 -0.006397849
-0.0070299753 0.0006704393 -0.009858206 -0.012857003 0.0031407224 0.0049053337 -0.0012817822 -0.009735222
0.009526199 -0.0013613355 -0.0020520866 0.00216623 0.0031573751 -0.0015311439 -0.0071490593 -0.00018356141
0.0034735212 0.0064396383 0.0013586847 -0.008911664 -0.0017580946 -0.0031846247 -0.0082808705 0.010197091
-0.0060966183 -0.0028056602 0.0033598952 0.0015239315 -0.004396584 0.0008306619 0.0028019112 -0.008179292
00000000: ec51 b63b 9935 b839 b836 9d3b 5620 483b
00000010: 81a6 bc3b f28e f3b9 0612 043b ee82 06bb
00000020: 8b79 bebb a570 54bc e306 383b 3b19 9c3a
00000030: 2f42 503b 2736 d9ba 5416 51ba cada e1ba
00000040: 440e 1c3c a5f2 d63b 9673 72bb deee 0ebc
00000050: 5aa3 3dbb 5733 c8bb ca67 35bc 8de9 233a
00000060: c16a 113c cfbb 52ba 186b 2ebb 41e0 9a3b
00000070: ca9e 37bc 3551 093c 2be9 60b9 b14f d63a
00000080: f8b0 29ba 12bc d0ba 188b dd38 4237 8ebb
00000090: 1702 0e3c 0b63 56ba b7dd 97b9 7256 463c
000000a0: 0478 27b9 44d7 2dbb c7b7 3dbc 2ee5 39bb
000000b0: d182 cc39 c329 e2bb 75d6 0cbc 01ca b4ba
000000c0: fbdc a8b8 f6a2 4ebc 7e76 72bb e566 78bc
000000d0: ba18 1f3c 900c f73b 9292 403b 3504 5cbb
000000e0: 369f 56bb 2d1b 0a3c 3a95 e939 cf02 153a
000000f0: 272e 943b 393e fc3a 86c3 b13b abd1 89b9
00000100: 4371 ce3b dc4c a0bb 483b 05bc da02 ae3b
00000110: 7ca5 10bb d441 ac38 ffe8 b53b b60f 143c
00000120: 143d cdbb 6f2c a3bb 0283 83bb 74b8 6f3b
00000130: 3eef 403b 3d2d 893b 916d 1d3a d879 4bbb
00000140: f838 aebb 2ee6 803c d23c 363b 524e f3b9
00000150: 57a3 583a 04b9 61bb d433 2c3b 9766 df3a
00000160: fdbe 97bb 5140 ce3b 1734 e2bb 506a f4b9
00000170: f1d6 3abb 7b95 d03a 391c efb9 b3a6 4339
00000180: c2a3 1e3c 8c5b 8b3b 8306 e73b 653a 873b
00000190: 55eb f73b e35a 903a 78f7 0e3a 933e b13b
000001a0: d8be 29bc af3b c5bb 971f 11bc bc4f 8cb8
000001b0: 45af 1b3c b118 543c c5fb 253c 228c 013b
000001c0: f3ac 0bbb 4ae2 0b3b 29d2 48ba 0ed9 d4bb
000001d0: a84c f4b9 a826 003b f9a7 9dbb 045f e2ba
000001e0: 2b77 cebb 22d6 98b9 243d 583b 1f3e 73b9
000001f0: d9a7 78bb 7131 b6bb d27f bcba 87a2 d13b
00000200: a224 a63b 38e3 8abc 2462 9a3b 33f3 c5bb
00000210: e9a9 553c 9aae 183b c892 c6b9 31b2 b43b
00000220: ee73 ecbb 3ec1 dabb 0492 a93b cd32 94b7
00000230: e2b5 c13b bf0f 2b3c 04e1 c4bb cea2 ef3b
00000240: e437 fb3b 94e4 9f3a a5e9 36bb 2f71 0b3c
00000250: f95b 96ba bd7c 1f3b f547 7dbc 7c4f 50ba
00000260: 5a66 dc3b 0cfe 52ba 7226 e93b fe50 ef3a
00000270: 1119 bbbb 0b6e 63bc cdca 3d3b 1dca 723b
00000280: 7309 603a baa8 3d3a 1c43 c8ba 202b 773a
00000290: b6b1 15bc 8a2f 9ebb 3237 233b 9727 403c
000002a0: 3c6b b0bb 34fd 2abc 26c7 9c3b 9019 f4bb
000002b0: 2af5 e2bb 01c6 16ba e5d7 773a 9340 4eba
000002c0: 6650 58bb 8779 6f3b 0f63 b03b e7a1 35bb
000002d0: bc05 f03b 79c9 443b de24 fd39 519d 54ba
000002e0: 3a23 243a 0861 25bb a9ec 863b 2019 48ba
000002f0: b9b0 ecbb 6e48 343b c354 eaba f10a 0c3c
00000300: 1097 bfbb def5 963b a353 84bc 11cb 81bb
00000310: ca3a 96bb 53fa 613b 473f 48b8 50b4 ebba
00000320: 6a5f 363c 0546 adbb e100 4cbb 0734 013b
00000330: f10d 88bb 47f0 96b7 e15c 623b d148 413c
00000340: 84dc e83a 2878 173b 43e4 a03b df5e 063c
00000350: 3095 b63b c27d 093c a1ce e5bb 7ce6 cebb
00000360: 7382 2cbb d9a7 aebb caeb 0ebb 6aa4 b838
00000370: 1077 1cbc 271c 4ebc d988 86ba 0ca5 d1bb
00000380: b55b e6bb 6bc0 2f3a 5084 21bc 2ea6 52bc
00000390: 94d4 4d3b ecbc a03b 7901 a8ba 7b80 1fbc
000003a0: c613 1c3c d76e b2ba 4d7c 06bb 4ff7 0d3b
000003b0: f7eb 4e3b aab0 c8ba a842 eabb 647a 40b9
000003c0: 04a4 633b 9a03 d33b e515 b23a 3a02 12bc
000003d0: de6f e6ba 23b5 50bb 7dac 07bc b311 273c
000003e0: 24c6 c7bb 2bdf 37bb b031 5c3b a8be c73a
000003f0: 3811 90bb c7c0 593a 45a0 373b 7002 06bc

siren.sine_layers.3.linear.bias f4 [128]
-0.069222346 0.0054416233 0.033088144 -0.0025281569 -0.06852561 0.010016051 0.04517503 -0.031068394
-0.036559876 -0.01773308 0.06756656 0.05817242 -0.061896097 -0.07237577 0.06299008 -0.00087368797
0.03973353 0.008970938 0.04965438 0.09805661 -0.009866249 -0.040677343 -0.061492257 -0.036127232
0.06809936 0.055732686 0.042785984 0.05190255 -0.0060344283 -0.056990378 -0.006540064 -0.063747786
-0.022794707 -0.07625957 0.047914732 -0.0746184 0.08292524 0.017463777 0.01724133 0.023972197
-0.023002246 -0.015496937 0.020960644 -0.01980912 0.0496256 -0.07504159 0.059077624 -0.0048860707
0.07931936 -0.091811255 -0.0002668956 -0.07853925 0.023488197 -0.025788104 0.0041750157 -0.06805665
0.09441951 0.062061083 0.0016360383 0.027729083 0.050571784 -0.07059106 -0.054456472 -0.024470484
0.0377694 -0.00854539 0.061635584 -0.046040412 0.056573983 -0.079818904 -0.051118135 0.06905549
-0.07866719 0.0023429238 0.0068737264 -0.049358744 0.046944577 0.03949589 -0.0044354093 -0.04445597
0.08084404 0.053662147 0.039942186 -0.053000532 0.020184545 0.048507575 -0.057958156 -0.0728925
-0.047383934 -0.012760717 0.035018515 -0.06343644 -0.048841573 0.029455833 0.056677155 -0.0043842373
-0.005574861 -0.075458005 -0.061683275 -0.07502973 -0.082751974 0.020662189 0.04274632 -0.002617611
-0.06625074 -0.04604584 0.0033768427 -0.026100855 -0.03185668 0.04237549 -0.073154606 -0.0634927
-0.04087589 -0.020978708 -0.03705839 -0.078870356 0.08620808 -0.05241342 -0.044525113 -0.03886047
0.052911345 0.026133684 0.034077473 0.05006581 0.0067238286 0.009307955 0.0116453245 0.10130877
00000000: 72c4 8dbd a54f b23b 6f87 073d 6faf 25bb
00000010: 2857 8cbd 5d1a 243c 7409 393d 2583 febc
00000020: cfbf 15bd f744 91bc 5660 8a3d 3446 6e3d
00000030: c386 7dbd bf39 94bd f100 813d 3508 65ba
00000040: a0bf 223d d7fa 123c 6462 4b3d e7d1 c83d
00000050: 0ca6 21bc 499d 26bd 4edf 7bbd 26fa 13bd
00000060: ad77 8b3d f547 643d 5b40 2f3d c597 543d
00000070: 74bc c5bb be6e 69bd 084e d6bb 338e 82bd
00000080: f7bb babc fa2d 9cbd 3d42 443d 88d1 98bd
00000090: b5d4 a93d 3210 8f3c b13d 8d3c 5761 c43c
000000a0: 356f bcbc dde6 7dbc a8b5 ab3c bc46 a2bc
000000b0: 3744 4b3d 68af 99bd 61fb 713d 551b a0bb
000000c0: 3072 a23d 8a07 bcbd 1fee 8bb9 30d9 a0bd
000000d0: 526a c03c 9341 d3bc 92ce 883b 4961 8bbd
000000e0: 045f c13d c333 7e3d 5670 d63a 1a28 e33c
000000f0: 5c24 4f3d 0c92 90bd c00d 5fbd 5376 c8bc
00000100: 16b4 1a3d f701 0cbc 9875 7c3d df94 3cbd
00000110: 1fba 673d 1878 a3bd 4061 51bd f76c 8d3d
00000120: 441c a1bd bd8b 193b ff3c e13b 652c 4abd
00000130: f548 403d 71c6 213d e956 91bb 7717 36bd
00000140: 8f91 a53d d7cc 5b3d 6b9a 233d 1617 59bd
00000150: 0f5a a53c e1af 463d 8865 6dbd aa48 95bd
00000160: a815 42bd 5412 51bc 936f 0f3d f7ea 81bd
00000170: 1a0e 48bd 5c4d f13c 4e26 683d a6a9 8fbb
00000180: 53ad b6bb ba89 9abd 9aa7 7cbd 30a9 99bd
00000190: de79 a9bd c043 a93c c416 2f3d 3a8c 2bbb
000001a0: 78ae 87bd 909a 3cbd 054e 5d3b 76d1 d5bc
000001b0: 267c 02bd ec91 2d3d 15d2 95bd 7608 82bd
000001c0: 7a6d 27bd 8adb abbc 8aca 17bd c886 a1bd
000001d0: dd8d b03d 74af 56bd f75f 36bd 282c 1fbd
000001e0: 91b9 583d 4f16 d63c d294 0b3d cf11 4d3d
000001f0: 9053 dc3b 6580 183c 08cc 3e3c f97a cf3d

siren.sine_layers.4.linear.weight f4 [128, 128, 1, 1]
-0.0025948044 -0.0019745245 -0.00080114376 -0.007297179 0.002688294 -0.00041901652 0.0006492719 0.0002813007
0.003914467 -0.0029509615 -0.0019785014 0.0073952354 0.0027607162 -0.003252166 0.00018415313 0.008072052
-0.005350192 0.0023778414 0.005523909 -8.972719e-05 0.005883328 -0.0014569013 0.00822242 0.0008164965
-0.0020253847 0.0013212984 0.009854557 0.0067196507 0.007121729 0.0029987118 0.0025146494 0.0001714285
0.0040579047 -0.0035432775 0.0048422934 -0.0022222553 0.009886553 0.0039488636 -0.00232515 0.0005786271
-0.0051428205 -0.007135941 0.0025132599 -0.011926984 -0.00090713357 0.0032270453 0.0058620153 -0.000102846076
0.0036074177 0.0071960017 -0.0035836338 0.0010630807 0.0069089327 -0.006129884 0.0015226554 -0.0064570396
-0.0060337065 0.0028355273 -0.006023262 -0.008006327 0.0026382578 0.009298205 -0.0016354847 0.0010731602
0.0051503116 -0.002125438 0.00074413145 0.0021675052 -0.0007849685 -0.0024701997 -0.0009088854 -0.0077345353
-0.0051242127 -0.0061672446 -0.0030142465 0.0051647266 0.006781327 0.0007258141 0.002806941 -0.0023301125
0.0002484338 -0.0035835828 0.006058042 -0.0036471575 -0.0022021183 0.007835653 -0.0028130228 0.0051035653
0.0055931476 -0.0023037265 -0.00016826177 0.00073214987 0.0042886077 -0.01123891 0.0031375494 -0.0015033218
-0.005415927 0.006402156 0.0056863693 -0.0008886752 -0.00013159987 -0.005490705 0.006511333 -0.0028461535
-0.0011560719 0.0042150654 0.007796357 0.0025087465 0.0066128345 0.0074741463 -0.005428419 0.0050289035
0.007316946 -0.0017072615 0.0052205115 0.0006856742 -0.0025689472 -0.0065730247 0.0042820363 0.008106427
0.0075505464 -0.0034299425 0.0018394738 -0.0051273014 -0.0059189843 0.0013443609 0.00092417514 0.0018674483
0.008557295 0.0015255129 -0.0018040956 0.0030820526 0.0076916115 -0.0008866065 0.0010681164 -0.004200338
-0.0037112471 -0.007067083 0.00060793804 -0.005347535 -0.002301705 -0.009707608 -0.002593051 0.011192299
0.009375711 0.0047514695 -0.0024992435 0.0010041181 0.011038359 -0.002270339 0.0059267855 -0.0037343956
-0.009724811 -0.0024650677 0.001899066 -0.005075341 0.0040983856 -0.0065547894 -0.00016609137 0.005858954
0.0011003047 0.004642941 -0.008436253 -0.0041046264 -0.008845279 0.0010791012 0.001683181 0.0047090286
-0.0021804003 -0.0044804327 0.00077068835 -0.0028096032 0.0023385815 -0.01100126 -0.0028456452 -0.004268189
-0.0071636857 -0.0057816855 0.0057385154 0.00030497095 -0.0021997988 0.0011194157 0.004199558 -0.00022387879
-0.0036379707 -0.0054699727 -0.0025416834 -0.008214367 -0.010781613 0.008862073 -0.0014342642 0.00019759004
-0.0055174 -0.0027248508 0.002082779 -0.00083618937 0.0017718503 -0.0048334226 0.00048683738 -0.0015328651
-0.003270716 0.0007041666 -0.012147464 -0.003676166 0.0013948713 0.0021680435 0.0016557246 0.013098485
-0.0011572653 0.0038444658 0.0047748173 0.0017677104 -0.0036120063 -0.006946819 -0.00074977486 0.00036244706
0.0006653576 0.0024136212 -0.016991034 0.0011640906 -0.00046377874 -0.0076848096 0.0021310358 0.008348664
-0.00043364588 0.0039844955 -0.0014255857 -0.00078299164 0.0024225395 0.001150256 0.002117906 0.001689931
0.004996485 -0.00065062306 0.0030583888 0.011793104 -0.0031490575 0.002571355 0.0018664775 0.012725354
0.0025626107 -0.007990039 0.019727325 0.012196143 -0.0002003784 0.0037729451 -0.003628669 0.0056537045
0.004097029 0.0009639861 0.005387142 -0.00010919299 0.0016577782 -0.0024145213 -0.0007353818 -0.0018926553
00000000: 980d 2abb 0667 01bb d903 52ba 2d1d efbb
00000010: 172e 303b 72af dbb9 e633 2a3a 8a7b 9339
00000020: ee44 803b eb64 41bb bfa9 01bb bb53 f23b
00000030: 22ed 343b 4b22 55bb 3b19 4139 a440 043c
00000040: aa50 afbb 8fd5 1b3b e801 b53b eb2b bcb8
00000050: efc8 c03b 7ff5 beba 54b7 063c 270a 563a
00000060: 51bc 04bb 6b2f ad3a 0275 213c 8430 dc3b
00000070: 655d e93b 0986 443b d1cc 243b 7dc1 3339
00000080: 2cf8 843b 5536 68bb 1aac 9e3b 42a3 11bb
00000090: 35fb 213c 7865 813b 8b61 18bb 02af 173a
000000a0: 1b85 a8bb 9dd4 e9bb 81b5 243b 6669 43bc
000000b0: b4cc 6dba d67c 533b 2616 c03b 11af d7b8
000000c0: 6d6a 6c3b 70cc eb3b 66db 6abb 1257 8b3a
000000d0: 5464 e23b 32dd c8bb d693 c73a 9395 d3bb
000000e0: 66b6 c5bb 41d4 393b c95e c5bb f82c 03bc
000000f0: 9fe6 2c3b 8057 183c c35d d6ba 48a9 8c3a
00000100: f2c3 a83b ef4a 0bbb d111 433a b40c 0e3b
00000110: 58c6 4dba 13e3 21bb 4442 6eba fc71 fdbb
00000120: 03e9 a7bb 9916 cabb aa8a 45bb de3c a93b
00000130: e535 de3b 8f44 3e3a a8f4 373b cdb4 18bb
00000140: 3840 8239 8bda 6abb 8a82 c63b 2605 6fbb
00000150: 6a51 10bb 1c61 003c b15a 38bb cf3b a73b
00000160: b946 b73b 1efa 16bb 6d6f 30b9 bfed 3f3a
00000170: 7387 8c3b 6823 38bc 589f 4d3b 1c0b c5ba
00000180: 1778 b1bb 2dc9 d13b b954 ba3b fcf5 68ba
00000190: 12fe 09b9 5feb b3bb 055d d53b 8886 3abb
000001a0: 5687 97ba 881e 8a3b 9578 ff3b c869 243b
000001b0: 7ab0 d83b afe9 f43b e1e0 b1bb 80c9 a43b
000001c0: fec2 ef3b 31c6 dfba d310 ab3b d1be 333a
000001d0: c85b 28bb 8762 d7bb 5350 8c3b d2d0 043c
000001e0: 936a f73b e3c8 60bb 801a f13a ec02 a8bb
000001f0: 0af4 c1bb 4435 b03a 5844 723a 2bc5 f43a
00000200: e633 0c3c b8f3 c73a 6777 ecba 43fc 493b
00000210: ea09 fc3b 286b 68ba 0a00 8c3a fda2 89bb
00000220: 6538 73bb fd92 e7bb 085e 1f3a 603a afbb
00000230: 34d8 16bb a90c 1fbc 2df0 29bb e85f 373c
00000240: 959c 193c 37b2 9b3b 59ca 23bb 9d9c 833a
00000250: 3cda 343c f8c9 14bb 7b35 c23b c3bc 74bb
00000260: d054 1fbc f98c 21bb 15ea f83a 0c4f a6bb
00000270: c04b 863b 8fc9 d6bb d028 2eb9 78fc bf3b
00000280: 1938 903a d023 983b 3638 0abc 1a80 86bb
00000290: caeb 10bc a170 8d3a 2f9e dc3a 324e 9a3b
000002a0: 0ce5 0ebb 98d0 92bb 0508 4a3a 5221 38bb
000002b0: e342 193b a13e 34bc 017e 3abb 2adc 8bbb
000002c0: 5abd eabb 4b74 bdbb 280a bc3b 82e4 9f39
000002d0: 802a 10bb 5cb9 923a 729c 893b 01c1 6ab9
000002e0: 056b 6ebb 753d b3bb 5f92 26bb 8d95 06bc
000002f0: 5da5 30bc 3a32 113c ecfd bbba 2c30 4f39
00000300: 4ecb b4bb 6993 32bb 3c7f 083b b833 5bba
00000310: 6e3d e83a b061 9ebb 353e ff39 6bea c8ba
00000320: 8259 56bb d297 383a 2806 47bc d5eb 70bb
00000330: 1dd4 b63a bc15 0e3b e604 d93a 079b 563c
00000340: 61af 97ba 6ff3 7b3b 1276 9c3b 85b2 e73a
00000350: 69b7 6cbb 24a2 e3bb 8a8c 44ba d206 be39
00000360: 656b 2e3a d82d 1e3b c830 8bbc 6694 983a
00000370: 5427 f3b9 dbd0 fbbb d9a8 0b3b d6c8 083c
00000380: f75a e3b9 5f90 823b b8da baba ae41 4dba
00000390: 78c3 1e3b 30c4 963a 91cc 0a3b ad80 dd3a
000003a0: 8eb9 a33b 938e 2aba 406f 483b dd37 413c
000003b0: 6b60 4ebb 2e84 283b 98a4 f43a 017e 503c
000003c0: 79f1 273b a7e8 02bc 339b a13c 55d2 473c
000003d0: ab1c 52b9 8443 773b f7ce 6dbb b642 b93b
000003e0: 5f40 863b 03b4 7c3a 9f86 b03b 8afe e4b8
000003f0: ce49 d93a f23c 1ebb a3c6 40ba f912 f8ba

siren.sine_layers.4.linear.bias f4 [128]
-0.035917148 -0.11082961 0.027252888 -0.00110257 0.005100025 0.041057386 -0.038082544 0.04981039
-0.080771945 0.08523649 0.029828431 -0.008118171 -0.07385969 -0.08175709 0.08871312 -0.031447817
0.07596267 0.07319124 -0.07299229 0.035003282 -0.049807813 -0.053890612 -0.083547145 0.0778208
-0.0478929 -0.04241711 -0.0667157 0.051958937 -0.01733211 0.009167239 -0.008035926 0.06933363
-0.07279377 0.026268713 0.056003045 -0.0928781 -0.07278009 -0.08357594 -0.073546186 -0.07055968
-0.06759771 -0.00577727 0.025198143 -0.07261024 0.027698707 -0.05734985 -0.045129325 0.08157109
-0.05399475 0.060247023 0.013949589 0.002013211 -0.076241106 0.007729367 -0.08513894 -0.058158204
0.061175823 0.10338447 -0.046254035 -0.070116736 0.07845997 0.055231 0.03749342 0.009932984
-0.0077251913 -0.079682805 0.042752817 0.054406933 0.04537457 0.050995223 -0.015731908 0.013224555
-0.06235266 -0.04658979 0.008890381 -0.0062988414 -0.07921315 -0.061081797 0.07342597 -0.072132
0.024566099 -0.024041701 -0.00052346033 0.049136113 0.05799522 -0.054485124 -0.04301729 0.034750223
-0.096695155 0.03797173 -0.073339805 0.039705697 -0.012974074 -0.012960821 -0.0133001935 0.087246105
-0.000960379 -0.045590565 -0.051017996 -0.008196278 -0.0622247 -0.032615844 0.034561764 -0.041481115
0.053439632 0.03860707 -0.045159932 0.073847756 -0.013675937 0.02372477 0.039872322 -0.04147387
-0.029456884 0.042734995 0.031546697 -0.07814383 -0.09777679 -0.1024183 0.05054614 0.061303005
0.084634945 0.007141649 0.041057106 -0.035376273 -0.0438426 -0.07066447 0.025652783 0.027673617
00000000: dc1d 13bd a2fa e2bd 7341 df3c 1c84 90ba
00000010: 1c1e a73b ca2b 283d 71fc 1bbd fb05 4c3d
00000020: c36b a5bd 7890 ae3d c15a f43c 1402 05bc
00000030: c043 97bd 4370 a7bd 39af b53d 6dcf 00bd
00000040: 5192 9b3d 4ae5 953d fb7c 95bd 9a5f 0f3d
00000050: 4703 4cbd 67bc 5cbd c41a abbd 8360 9f3d
00000060: 582b 44bd 90bd 2dbd 3ea2 88bd e5d2 543d
00000070: 12fc 8dbc 3032 163c 1ea9 03bc cafe 8d3d
00000080: e614 95bd 7c31 d73c 7363 653d e036 bebd
00000090: ba0d 95bd dd29 abbd 629f 96bd 9881 90bd
000000a0: ab70 8abd 414f bdbb 566c ce3c adb4 94bd
000000b0: 66e8 e23c ade7 6abd 87d9 38bd be0e a73d
000000c0: 9929 5dbd 95c5 763d d18c 643c 13f0 033b
000000d0: 4c24 9cbd a146 fd3b 535d aebd 4c37 6ebd
000000e0: 8093 7a3d 3dbb d33d df74 3dbd 5d99 8fbd
000000f0: 9faf a03d e739 623d b392 193d f4bd 223c
00000100: 9a23 fdbb bd30 a3bd 941d 2f3d ced9 5e3d
00000110: afda 393d 5ee0 503d 34e0 80bc ceab 583c
00000120: 8165 7fbd f0d4 3ebd f6a8 113c 8366 cebb
00000130: 813a a2bd e830 7abd 5b60 963d f1b9 93bd
00000140: d83e c93c 1af3 c4bc d438 09ba f342 493d
00000150: 658c 6d3d cb2b 5fbd e632 30bd 4056 0e3d
00000160: 1c08 c6bd 3f88 1b3d 2e33 96bd 71a2 223d
00000170: 3691 54bc a059 54bc 0ee9 59bc 16ae b23d
00000180: f2c1 7bba 2cbd 3abd 3ff8 50bd ae49 06bc
00000190: 54df 7ebd 3198 05bd a390 0d3d 1ae8 29bd
000001a0: 84e3 5a3d 7222 1e3d 9ff9 38bd 7e3d 973d
000001b0: 0a11 60bc 735a c23c 2951 233d 81e0 29bd
000001c0: 904f f1bc e40a 2f3d 1c37 013d df09 a0bd
000001d0: 333f c8bd b0c0 d1bd 7809 4f3d dc18 7b3d
000001e0: 1655 ad3d 7e04 ea3b 7f2b 283d b6e6 10bd
000001f0: 4c94 33bd 89b8 90bd c925 d23c c8b3 e23c
